Neural Network Tools for STM32AI v1.7.0 (STM.ai v8.0.0-19389)
Created date          : 2023-04-10 16:13:39
Parameters            : generate --name network -m /home/pavel/STM32CubeIDE/workspace_1.3.0/stm32h_cam_AI3/model/CIFAR_32х32.h5 --type keras --compression none --verbosity 1 --workspace /tmp/mxAI_workspace166737560070521614859773414619069343 --output /home/pavel/.stm32cubemx/network_output --allocate-inputs --series stm32h7 --allocate-outputs

Exec/report summary (generate)
------------------------------------------------------------------------------------------------------
model file         :   /home/pavel/STM32CubeIDE/workspace_1.3.0/stm32h_cam_AI3/model/CIFAR_32х32.h5   
type               :   keras                                                                          
c_name             :   network                                                                        
compression        :   none                                                                           
options            :   allocate-inputs, allocate-outputs                                              
optimization       :   balanced                                                                       
target/series      :   stm32h7                                                                        
workspace dir      :   /tmp/mxAI_workspace166737560070521614859773414619069343                        
output dir         :   /home/pavel/.stm32cubemx/network_output                                        
model_fmt          :   float                                                                          
model_name         :   CIFAR_3232                                                                     
model_hash         :   54b8609dc539ad657c48ff08a234573a                                               
params #           :   56,706 items (221.51 KiB)                                                      
------------------------------------------------------------------------------------------------------
input 1/1          :   'input_0' (domain:activations/**default**)                                     
                   :   3072 items, 12.00 KiB, ai_float, float, (1,32,32,3)                            
output 1/1         :   'dense_1' (domain:activations/**default**)                                     
                   :   10 items, 40 B, ai_float, float, (1,1,1,10)                                    
macc               :   550,160                                                                        
weights (ro)       :   214,920 B (209.88 KiB) (1 segment) / -11,904(-5.2%) vs float model             
activations (rw)   :   56,512 B (55.19 KiB) (1 segment) *                                             
ram (total)        :   56,512 B (55.19 KiB) = 56,512 + 0 + 0                                          
------------------------------------------------------------------------------------------------------
(*) 'input'/'output' buffers can be used from the activations buffer

Model name - CIFAR_3232 ['input_0'] ['dense_1']
------ ------------------------------------------------------------ ------------------------- --------------- -------- -------------------------------- --- -------------------- ------------------- ------------------------------- 
m_id   layer (type,original)                                        oshape                    param/size          macc                     connected to   | c_size               c_macc              c_type                          
------ ------------------------------------------------------------ ------------------------- --------------- -------- -------------------------------- --- -------------------- ------------------- ------------------------------- 
0      input_0 (Input, None)                                        [b:None,h:32,w:32,c:3]                                                                |                                          
------ ------------------------------------------------------------ ------------------------- --------------- -------- -------------------------------- --- -------------------- ------------------- ------------------------------- 
1      Conv1_conv2d (Conv2D, Conv2D)                                [b:None,h:16,w:16,c:8]    216/864           55,296                          input_0   | -864(-100.0%)        -55,296(-100.0%)    
------ ------------------------------------------------------------ ------------------------- --------------- -------- -------------------------------- --- -------------------- ------------------- ------------------------------- 
2      bn_Conv1 (ScaleBias, BatchNormalization)                     [b:None,h:16,w:16,c:8]    16/64              4,096                     Conv1_conv2d   | +40,928(+63950.0%)   +6,160(+150.4%)     dense_of32/nl_of32[64, 65]      
------ ------------------------------------------------------------ ------------------------- --------------- -------- -------------------------------- --- -------------------- ------------------- ------------------------------- 
3      Conv1_relu (Nonlinearity, ReLU)                              [b:None,h:16,w:16,c:8]                       2,048                         bn_Conv1   | +896(+100.0%)        +57,352(+2800.4%)   conv2d_of32[0]                  
------ ------------------------------------------------------------ ------------------------- --------------- -------- -------------------------------- --- -------------------- ------------------- ------------------------------- 
4      expanded_conv_depthwise_conv2d (Conv2D, DepthwiseConv2D)     [b:None,h:16,w:16,c:8]    72/288            18,432                       Conv1_relu   | -288(-100.0%)        -18,432(-100.0%)    
------ ------------------------------------------------------------ ------------------------- --------------- -------- -------------------------------- --- -------------------- ------------------- ------------------------------- 
5      expanded_conv_depthwise_BN (ScaleBias, BatchNormalization)   [b:None,h:16,w:16,c:8]    16/64              4,096   expanded_conv_depthwise_conv2d   | +296(+462.5%)        -3,856(-94.1%)      dense_of32/nl_of32[o][66, 67]   
------ ------------------------------------------------------------ ------------------------- --------------- -------- -------------------------------- --- -------------------- ------------------- ------------------------------- 
6      expanded_conv_depthwise_relu (Nonlinearity, ReLU)            [b:None,h:16,w:16,c:8]                       2,048       expanded_conv_depthwise_BN   | +320(+100.0%)        +20,488(+1000.4%)   conv2d_of32[1]                  
------ ------------------------------------------------------------ ------------------------- --------------- -------- -------------------------------- --- -------------------- ------------------- ------------------------------- 
7      expanded_conv_project_conv2d (Conv2D, Conv2D)                [b:None,h:16,w:16,c:8]    64/256            16,384     expanded_conv_depthwise_relu   | -256(-100.0%)        -16,384(-100.0%)    
------ ------------------------------------------------------------ ------------------------- --------------- -------- -------------------------------- --- -------------------- ------------------- ------------------------------- 
8      expanded_conv_project_BN (ScaleBias, BatchNormalization)     [b:None,h:16,w:16,c:8]    16/64              4,096     expanded_conv_project_conv2d   | +224(+350.0%)        +12,296(+300.2%)    conv2d_of32[2]                  
------ ------------------------------------------------------------ ------------------------- --------------- -------- -------------------------------- --- -------------------- ------------------- ------------------------------- 
9      expanded_conv_add (Eltwise, Add)                             [b:None,h:16,w:16,c:8]                       2,048                       Conv1_relu   |                                          eltwise_of32[3]                 
                                                                                                                               expanded_conv_project_BN   | 
------ ------------------------------------------------------------ ------------------------- --------------- -------- -------------------------------- --- -------------------- ------------------- ------------------------------- 
10     block_1_expand_conv2d (Conv2D, Conv2D)                       [b:None,h:16,w:16,c:48]   384/1,536         98,304                expanded_conv_add   | -1,536(-100.0%)      -98,304(-100.0%)    
------ ------------------------------------------------------------ ------------------------- --------------- -------- -------------------------------- --- -------------------- ------------------- ------------------------------- 
11     block_1_expand_BN (ScaleBias, BatchNormalization)            [b:None,h:16,w:16,c:48]   96/384            24,576            block_1_expand_conv2d   | -384(-100.0%)        -24,576(-100.0%)    
------ ------------------------------------------------------------ ------------------------- --------------- -------- -------------------------------- --- -------------------- ------------------- ------------------------------- 
12     block_1_expand_relu (Nonlinearity, ReLU)                     [b:None,h:16,w:16,c:48]                     12,288                block_1_expand_BN   | +1,728(+100.0%)      +110,640(+900.4%)   conv2d_of32[4]                  
------ ------------------------------------------------------------ ------------------------- --------------- -------- -------------------------------- --- -------------------- ------------------- ------------------------------- 
13     block_1_pad (Pad, ZeroPadding2D)                             [b:None,h:17,w:17,c:48]                                         block_1_expand_relu   |                                          
------ ------------------------------------------------------------ ------------------------- --------------- -------- -------------------------------- --- -------------------- ------------------- ------------------------------- 
14     block_1_depthwise_conv2d (Conv2D, DepthwiseConv2D)           [b:None,h:8,w:8,c:48]     432/1,728         27,648                      block_1_pad   | -1,728(-100.0%)      -27,648(-100.0%)    
------ ------------------------------------------------------------ ------------------------- --------------- -------- -------------------------------- --- -------------------- ------------------- ------------------------------- 
15     block_1_depthwise_BN (ScaleBias, BatchNormalization)         [b:None,h:8,w:8,c:48]     96/384             6,144         block_1_depthwise_conv2d   | -384(-100.0%)        -6,144(-100.0%)     
------ ------------------------------------------------------------ ------------------------- --------------- -------- -------------------------------- --- -------------------- ------------------- ------------------------------- 
16     block_1_depthwise_relu (Nonlinearity, ReLU)                  [b:None,h:8,w:8,c:48]                        3,072             block_1_depthwise_BN   | +1,920(+100.0%)      +30,768(+1001.6%)   conv2d_of32[5]                  
------ ------------------------------------------------------------ ------------------------- --------------- -------- -------------------------------- --- -------------------- ------------------- ------------------------------- 
17     block_1_project_conv2d (Conv2D, Conv2D)                      [b:None,h:8,w:8,c:8]      384/1,536         24,576           block_1_depthwise_relu   | -1,536(-100.0%)      -24,576(-100.0%)    
------ ------------------------------------------------------------ ------------------------- --------------- -------- -------------------------------- --- -------------------- ------------------- ------------------------------- 
18     block_1_project_BN (ScaleBias, BatchNormalization)           [b:None,h:8,w:8,c:8]      16/64              1,024           block_1_project_conv2d   | +1,504(+2350.0%)     +23,560(+2300.8%)   conv2d_of32[6]                  
------ ------------------------------------------------------------ ------------------------- --------------- -------- -------------------------------- --- -------------------- ------------------- ------------------------------- 
19     block_2_expand_conv2d (Conv2D, Conv2D)                       [b:None,h:8,w:8,c:48]     384/1,536         24,576               block_1_project_BN   | -1,536(-100.0%)      -24,576(-100.0%)    
------ ------------------------------------------------------------ ------------------------- --------------- -------- -------------------------------- --- -------------------- ------------------- ------------------------------- 
20     block_2_expand_BN (ScaleBias, BatchNormalization)            [b:None,h:8,w:8,c:48]     96/384             6,144            block_2_expand_conv2d   | -384(-100.0%)        -6,144(-100.0%)     
------ ------------------------------------------------------------ ------------------------- --------------- -------- -------------------------------- --- -------------------- ------------------- ------------------------------- 
21     block_2_expand_relu (Nonlinearity, ReLU)                     [b:None,h:8,w:8,c:48]                        3,072                block_2_expand_BN   | +1,728(+100.0%)      +27,696(+901.6%)    conv2d_of32[7]                  
------ ------------------------------------------------------------ ------------------------- --------------- -------- -------------------------------- --- -------------------- ------------------- ------------------------------- 
22     block_2_depthwise_conv2d (Conv2D, DepthwiseConv2D)           [b:None,h:8,w:8,c:48]     432/1,728         27,648              block_2_expand_relu   | -1,728(-100.0%)      -27,648(-100.0%)    
------ ------------------------------------------------------------ ------------------------- --------------- -------- -------------------------------- --- -------------------- ------------------- ------------------------------- 
23     block_2_depthwise_BN (ScaleBias, BatchNormalization)         [b:None,h:8,w:8,c:48]     96/384             6,144         block_2_depthwise_conv2d   | -384(-100.0%)        -6,144(-100.0%)     
------ ------------------------------------------------------------ ------------------------- --------------- -------- -------------------------------- --- -------------------- ------------------- ------------------------------- 
24     block_2_depthwise_relu (Nonlinearity, ReLU)                  [b:None,h:8,w:8,c:48]                        3,072             block_2_depthwise_BN   | +1,920(+100.0%)      +30,768(+1001.6%)   conv2d_of32[8]                  
------ ------------------------------------------------------------ ------------------------- --------------- -------- -------------------------------- --- -------------------- ------------------- ------------------------------- 
25     block_2_project_conv2d (Conv2D, Conv2D)                      [b:None,h:8,w:8,c:8]      384/1,536         24,576           block_2_depthwise_relu   | -1,536(-100.0%)      -24,576(-100.0%)    
------ ------------------------------------------------------------ ------------------------- --------------- -------- -------------------------------- --- -------------------- ------------------- ------------------------------- 
26     block_2_project_BN (ScaleBias, BatchNormalization)           [b:None,h:8,w:8,c:8]      16/64              1,024           block_2_project_conv2d   | +1,504(+2350.0%)     +23,560(+2300.8%)   conv2d_of32[9]                  
------ ------------------------------------------------------------ ------------------------- --------------- -------- -------------------------------- --- -------------------- ------------------- ------------------------------- 
27     block_2_add (Eltwise, Add)                                   [b:None,h:8,w:8,c:8]                           512               block_1_project_BN   |                                          eltwise_of32[10]                
                                                                                                                                     block_2_project_BN   | 
------ ------------------------------------------------------------ ------------------------- --------------- -------- -------------------------------- --- -------------------- ------------------- ------------------------------- 
28     block_3_expand_conv2d (Conv2D, Conv2D)                       [b:None,h:8,w:8,c:48]     384/1,536         24,576                      block_2_add   | -1,536(-100.0%)      -24,576(-100.0%)    
------ ------------------------------------------------------------ ------------------------- --------------- -------- -------------------------------- --- -------------------- ------------------- ------------------------------- 
29     block_3_expand_BN (ScaleBias, BatchNormalization)            [b:None,h:8,w:8,c:48]     96/384             6,144            block_3_expand_conv2d   | -384(-100.0%)        -6,144(-100.0%)     
------ ------------------------------------------------------------ ------------------------- --------------- -------- -------------------------------- --- -------------------- ------------------- ------------------------------- 
30     block_3_expand_relu (Nonlinearity, ReLU)                     [b:None,h:8,w:8,c:48]                        3,072                block_3_expand_BN   | +1,728(+100.0%)      +27,696(+901.6%)    conv2d_of32[11]                 
------ ------------------------------------------------------------ ------------------------- --------------- -------- -------------------------------- --- -------------------- ------------------- ------------------------------- 
31     block_3_pad (Pad, ZeroPadding2D)                             [b:None,h:9,w:9,c:48]                                           block_3_expand_relu   |                                          
------ ------------------------------------------------------------ ------------------------- --------------- -------- -------------------------------- --- -------------------- ------------------- ------------------------------- 
32     block_3_depthwise_conv2d (Conv2D, DepthwiseConv2D)           [b:None,h:4,w:4,c:48]     432/1,728          6,912                      block_3_pad   | -1,728(-100.0%)      -6,912(-100.0%)     
------ ------------------------------------------------------------ ------------------------- --------------- -------- -------------------------------- --- -------------------- ------------------- ------------------------------- 
33     block_3_depthwise_BN (ScaleBias, BatchNormalization)         [b:None,h:4,w:4,c:48]     96/384             1,536         block_3_depthwise_conv2d   | -384(-100.0%)        -1,536(-100.0%)     
------ ------------------------------------------------------------ ------------------------- --------------- -------- -------------------------------- --- -------------------- ------------------- ------------------------------- 
34     block_3_depthwise_relu (Nonlinearity, ReLU)                  [b:None,h:4,w:4,c:48]                          768             block_3_depthwise_BN   | +1,920(+100.0%)      +7,728(+1006.2%)    conv2d_of32[12]                 
------ ------------------------------------------------------------ ------------------------- --------------- -------- -------------------------------- --- -------------------- ------------------- ------------------------------- 
35     block_3_project_conv2d (Conv2D, Conv2D)                      [b:None,h:4,w:4,c:8]      384/1,536          6,144           block_3_depthwise_relu   | -1,536(-100.0%)      -6,144(-100.0%)     
------ ------------------------------------------------------------ ------------------------- --------------- -------- -------------------------------- --- -------------------- ------------------- ------------------------------- 
36     block_3_project_BN (ScaleBias, BatchNormalization)           [b:None,h:4,w:4,c:8]      16/64                256           block_3_project_conv2d   | +1,504(+2350.0%)     +5,896(+2303.1%)    conv2d_of32[13]                 
------ ------------------------------------------------------------ ------------------------- --------------- -------- -------------------------------- --- -------------------- ------------------- ------------------------------- 
37     block_4_expand_conv2d (Conv2D, Conv2D)                       [b:None,h:4,w:4,c:48]     384/1,536          6,144               block_3_project_BN   | -1,536(-100.0%)      -6,144(-100.0%)     
------ ------------------------------------------------------------ ------------------------- --------------- -------- -------------------------------- --- -------------------- ------------------- ------------------------------- 
38     block_4_expand_BN (ScaleBias, BatchNormalization)            [b:None,h:4,w:4,c:48]     96/384             1,536            block_4_expand_conv2d   | -384(-100.0%)        -1,536(-100.0%)     
------ ------------------------------------------------------------ ------------------------- --------------- -------- -------------------------------- --- -------------------- ------------------- ------------------------------- 
39     block_4_expand_relu (Nonlinearity, ReLU)                     [b:None,h:4,w:4,c:48]                          768                block_4_expand_BN   | +1,728(+100.0%)      +6,960(+906.2%)     conv2d_of32[14]                 
------ ------------------------------------------------------------ ------------------------- --------------- -------- -------------------------------- --- -------------------- ------------------- ------------------------------- 
40     block_4_depthwise_conv2d (Conv2D, DepthwiseConv2D)           [b:None,h:4,w:4,c:48]     432/1,728          6,912              block_4_expand_relu   | -1,728(-100.0%)      -6,912(-100.0%)     
------ ------------------------------------------------------------ ------------------------- --------------- -------- -------------------------------- --- -------------------- ------------------- ------------------------------- 
41     block_4_depthwise_BN (ScaleBias, BatchNormalization)         [b:None,h:4,w:4,c:48]     96/384             1,536         block_4_depthwise_conv2d   | -384(-100.0%)        -1,536(-100.0%)     
------ ------------------------------------------------------------ ------------------------- --------------- -------- -------------------------------- --- -------------------- ------------------- ------------------------------- 
42     block_4_depthwise_relu (Nonlinearity, ReLU)                  [b:None,h:4,w:4,c:48]                          768             block_4_depthwise_BN   | +1,920(+100.0%)      +7,728(+1006.2%)    conv2d_of32[15]                 
------ ------------------------------------------------------------ ------------------------- --------------- -------- -------------------------------- --- -------------------- ------------------- ------------------------------- 
43     block_4_project_conv2d (Conv2D, Conv2D)                      [b:None,h:4,w:4,c:8]      384/1,536          6,144           block_4_depthwise_relu   | -1,536(-100.0%)      -6,144(-100.0%)     
------ ------------------------------------------------------------ ------------------------- --------------- -------- -------------------------------- --- -------------------- ------------------- ------------------------------- 
44     block_4_project_BN (ScaleBias, BatchNormalization)           [b:None,h:4,w:4,c:8]      16/64                256           block_4_project_conv2d   | +1,504(+2350.0%)     +5,896(+2303.1%)    conv2d_of32[16]                 
------ ------------------------------------------------------------ ------------------------- --------------- -------- -------------------------------- --- -------------------- ------------------- ------------------------------- 
45     block_4_add (Eltwise, Add)                                   [b:None,h:4,w:4,c:8]                           128               block_3_project_BN   |                                          eltwise_of32[17]                
                                                                                                                                     block_4_project_BN   | 
------ ------------------------------------------------------------ ------------------------- --------------- -------- -------------------------------- --- -------------------- ------------------- ------------------------------- 
46     block_5_expand_conv2d (Conv2D, Conv2D)                       [b:None,h:4,w:4,c:48]     384/1,536          6,144                      block_4_add   | -1,536(-100.0%)      -6,144(-100.0%)     
------ ------------------------------------------------------------ ------------------------- --------------- -------- -------------------------------- --- -------------------- ------------------- ------------------------------- 
47     block_5_expand_BN (ScaleBias, BatchNormalization)            [b:None,h:4,w:4,c:48]     96/384             1,536            block_5_expand_conv2d   | -384(-100.0%)        -1,536(-100.0%)     
------ ------------------------------------------------------------ ------------------------- --------------- -------- -------------------------------- --- -------------------- ------------------- ------------------------------- 
48     block_5_expand_relu (Nonlinearity, ReLU)                     [b:None,h:4,w:4,c:48]                          768                block_5_expand_BN   | +1,728(+100.0%)      +6,960(+906.2%)     conv2d_of32[18]                 
------ ------------------------------------------------------------ ------------------------- --------------- -------- -------------------------------- --- -------------------- ------------------- ------------------------------- 
49     block_5_depthwise_conv2d (Conv2D, DepthwiseConv2D)           [b:None,h:4,w:4,c:48]     432/1,728          6,912              block_5_expand_relu   | -1,728(-100.0%)      -6,912(-100.0%)     
------ ------------------------------------------------------------ ------------------------- --------------- -------- -------------------------------- --- -------------------- ------------------- ------------------------------- 
50     block_5_depthwise_BN (ScaleBias, BatchNormalization)         [b:None,h:4,w:4,c:48]     96/384             1,536         block_5_depthwise_conv2d   | -384(-100.0%)        -1,536(-100.0%)     
------ ------------------------------------------------------------ ------------------------- --------------- -------- -------------------------------- --- -------------------- ------------------- ------------------------------- 
51     block_5_depthwise_relu (Nonlinearity, ReLU)                  [b:None,h:4,w:4,c:48]                          768             block_5_depthwise_BN   | +1,920(+100.0%)      +7,728(+1006.2%)    conv2d_of32[19]                 
------ ------------------------------------------------------------ ------------------------- --------------- -------- -------------------------------- --- -------------------- ------------------- ------------------------------- 
52     block_5_project_conv2d (Conv2D, Conv2D)                      [b:None,h:4,w:4,c:8]      384/1,536          6,144           block_5_depthwise_relu   | -1,536(-100.0%)      -6,144(-100.0%)     
------ ------------------------------------------------------------ ------------------------- --------------- -------- -------------------------------- --- -------------------- ------------------- ------------------------------- 
53     block_5_project_BN (ScaleBias, BatchNormalization)           [b:None,h:4,w:4,c:8]      16/64                256           block_5_project_conv2d   | +1,504(+2350.0%)     +5,896(+2303.1%)    conv2d_of32[20]                 
------ ------------------------------------------------------------ ------------------------- --------------- -------- -------------------------------- --- -------------------- ------------------- ------------------------------- 
54     block_5_add (Eltwise, Add)                                   [b:None,h:4,w:4,c:8]                           128                      block_4_add   |                                          eltwise_of32[21]                
                                                                                                                                     block_5_project_BN   | 
------ ------------------------------------------------------------ ------------------------- --------------- -------- -------------------------------- --- -------------------- ------------------- ------------------------------- 
55     block_6_expand_conv2d (Conv2D, Conv2D)                       [b:None,h:4,w:4,c:48]     384/1,536          6,144                      block_5_add   | -1,536(-100.0%)      -6,144(-100.0%)     
------ ------------------------------------------------------------ ------------------------- --------------- -------- -------------------------------- --- -------------------- ------------------- ------------------------------- 
56     block_6_expand_BN (ScaleBias, BatchNormalization)            [b:None,h:4,w:4,c:48]     96/384             1,536            block_6_expand_conv2d   | -384(-100.0%)        -1,536(-100.0%)     
------ ------------------------------------------------------------ ------------------------- --------------- -------- -------------------------------- --- -------------------- ------------------- ------------------------------- 
57     block_6_expand_relu (Nonlinearity, ReLU)                     [b:None,h:4,w:4,c:48]                          768                block_6_expand_BN   | +1,728(+100.0%)      +6,960(+906.2%)     conv2d_of32[22]                 
------ ------------------------------------------------------------ ------------------------- --------------- -------- -------------------------------- --- -------------------- ------------------- ------------------------------- 
58     block_6_pad (Pad, ZeroPadding2D)                             [b:None,h:5,w:5,c:48]                                           block_6_expand_relu   |                                          
------ ------------------------------------------------------------ ------------------------- --------------- -------- -------------------------------- --- -------------------- ------------------- ------------------------------- 
59     block_6_depthwise_conv2d (Conv2D, DepthwiseConv2D)           [b:None,h:2,w:2,c:48]     432/1,728          1,728                      block_6_pad   | -1,728(-100.0%)      -1,728(-100.0%)     
------ ------------------------------------------------------------ ------------------------- --------------- -------- -------------------------------- --- -------------------- ------------------- ------------------------------- 
60     block_6_depthwise_BN (ScaleBias, BatchNormalization)         [b:None,h:2,w:2,c:48]     96/384               384         block_6_depthwise_conv2d   | -384(-100.0%)        -384(-100.0%)       
------ ------------------------------------------------------------ ------------------------- --------------- -------- -------------------------------- --- -------------------- ------------------- ------------------------------- 
61     block_6_depthwise_relu (Nonlinearity, ReLU)                  [b:None,h:2,w:2,c:48]                          192             block_6_depthwise_BN   | +1,920(+100.0%)      +1,968(+1025.0%)    conv2d_of32[23]                 
------ ------------------------------------------------------------ ------------------------- --------------- -------- -------------------------------- --- -------------------- ------------------- ------------------------------- 
62     block_6_project_conv2d (Conv2D, Conv2D)                      [b:None,h:2,w:2,c:8]      384/1,536          1,536           block_6_depthwise_relu   | -1,536(-100.0%)      -1,536(-100.0%)     
------ ------------------------------------------------------------ ------------------------- --------------- -------- -------------------------------- --- -------------------- ------------------- ------------------------------- 
63     block_6_project_BN (ScaleBias, BatchNormalization)           [b:None,h:2,w:2,c:8]      16/64                 64           block_6_project_conv2d   | +1,504(+2350.0%)     +1,480(+2312.5%)    conv2d_of32[24]                 
------ ------------------------------------------------------------ ------------------------- --------------- -------- -------------------------------- --- -------------------- ------------------- ------------------------------- 
64     block_7_expand_conv2d (Conv2D, Conv2D)                       [b:None,h:2,w:2,c:48]     384/1,536          1,536               block_6_project_BN   | -1,536(-100.0%)      -1,536(-100.0%)     
------ ------------------------------------------------------------ ------------------------- --------------- -------- -------------------------------- --- -------------------- ------------------- ------------------------------- 
65     block_7_expand_BN (ScaleBias, BatchNormalization)            [b:None,h:2,w:2,c:48]     96/384               384            block_7_expand_conv2d   | -384(-100.0%)        -384(-100.0%)       
------ ------------------------------------------------------------ ------------------------- --------------- -------- -------------------------------- --- -------------------- ------------------- ------------------------------- 
66     block_7_expand_relu (Nonlinearity, ReLU)                     [b:None,h:2,w:2,c:48]                          192                block_7_expand_BN   | +1,728(+100.0%)      +1,776(+925.0%)     conv2d_of32[25]                 
------ ------------------------------------------------------------ ------------------------- --------------- -------- -------------------------------- --- -------------------- ------------------- ------------------------------- 
67     block_7_depthwise_conv2d (Conv2D, DepthwiseConv2D)           [b:None,h:2,w:2,c:48]     432/1,728          1,728              block_7_expand_relu   | -1,728(-100.0%)      -1,728(-100.0%)     
------ ------------------------------------------------------------ ------------------------- --------------- -------- -------------------------------- --- -------------------- ------------------- ------------------------------- 
68     block_7_depthwise_BN (ScaleBias, BatchNormalization)         [b:None,h:2,w:2,c:48]     96/384               384         block_7_depthwise_conv2d   | -384(-100.0%)        -384(-100.0%)       
------ ------------------------------------------------------------ ------------------------- --------------- -------- -------------------------------- --- -------------------- ------------------- ------------------------------- 
69     block_7_depthwise_relu (Nonlinearity, ReLU)                  [b:None,h:2,w:2,c:48]                          192             block_7_depthwise_BN   | +1,920(+100.0%)      +1,968(+1025.0%)    conv2d_of32[26]                 
------ ------------------------------------------------------------ ------------------------- --------------- -------- -------------------------------- --- -------------------- ------------------- ------------------------------- 
70     block_7_project_conv2d (Conv2D, Conv2D)                      [b:None,h:2,w:2,c:8]      384/1,536          1,536           block_7_depthwise_relu   | -1,536(-100.0%)      -1,536(-100.0%)     
------ ------------------------------------------------------------ ------------------------- --------------- -------- -------------------------------- --- -------------------- ------------------- ------------------------------- 
71     block_7_project_BN (ScaleBias, BatchNormalization)           [b:None,h:2,w:2,c:8]      16/64                 64           block_7_project_conv2d   | +1,504(+2350.0%)     +1,480(+2312.5%)    conv2d_of32[27]                 
------ ------------------------------------------------------------ ------------------------- --------------- -------- -------------------------------- --- -------------------- ------------------- ------------------------------- 
72     block_7_add (Eltwise, Add)                                   [b:None,h:2,w:2,c:8]                            32               block_6_project_BN   |                                          eltwise_of32[28]                
                                                                                                                                     block_7_project_BN   | 
------ ------------------------------------------------------------ ------------------------- --------------- -------- -------------------------------- --- -------------------- ------------------- ------------------------------- 
73     block_8_expand_conv2d (Conv2D, Conv2D)                       [b:None,h:2,w:2,c:48]     384/1,536          1,536                      block_7_add   | -1,536(-100.0%)      -1,536(-100.0%)     
------ ------------------------------------------------------------ ------------------------- --------------- -------- -------------------------------- --- -------------------- ------------------- ------------------------------- 
74     block_8_expand_BN (ScaleBias, BatchNormalization)            [b:None,h:2,w:2,c:48]     96/384               384            block_8_expand_conv2d   | -384(-100.0%)        -384(-100.0%)       
------ ------------------------------------------------------------ ------------------------- --------------- -------- -------------------------------- --- -------------------- ------------------- ------------------------------- 
75     block_8_expand_relu (Nonlinearity, ReLU)                     [b:None,h:2,w:2,c:48]                          192                block_8_expand_BN   | +1,728(+100.0%)      +1,776(+925.0%)     conv2d_of32[29]                 
------ ------------------------------------------------------------ ------------------------- --------------- -------- -------------------------------- --- -------------------- ------------------- ------------------------------- 
76     block_8_depthwise_conv2d (Conv2D, DepthwiseConv2D)           [b:None,h:2,w:2,c:48]     432/1,728          1,728              block_8_expand_relu   | -1,728(-100.0%)      -1,728(-100.0%)     
------ ------------------------------------------------------------ ------------------------- --------------- -------- -------------------------------- --- -------------------- ------------------- ------------------------------- 
77     block_8_depthwise_BN (ScaleBias, BatchNormalization)         [b:None,h:2,w:2,c:48]     96/384               384         block_8_depthwise_conv2d   | -384(-100.0%)        -384(-100.0%)       
------ ------------------------------------------------------------ ------------------------- --------------- -------- -------------------------------- --- -------------------- ------------------- ------------------------------- 
78     block_8_depthwise_relu (Nonlinearity, ReLU)                  [b:None,h:2,w:2,c:48]                          192             block_8_depthwise_BN   | +1,920(+100.0%)      +1,968(+1025.0%)    conv2d_of32[30]                 
------ ------------------------------------------------------------ ------------------------- --------------- -------- -------------------------------- --- -------------------- ------------------- ------------------------------- 
79     block_8_project_conv2d (Conv2D, Conv2D)                      [b:None,h:2,w:2,c:8]      384/1,536          1,536           block_8_depthwise_relu   | -1,536(-100.0%)      -1,536(-100.0%)     
------ ------------------------------------------------------------ ------------------------- --------------- -------- -------------------------------- --- -------------------- ------------------- ------------------------------- 
80     block_8_project_BN (ScaleBias, BatchNormalization)           [b:None,h:2,w:2,c:8]      16/64                 64           block_8_project_conv2d   | +1,504(+2350.0%)     +1,480(+2312.5%)    conv2d_of32[31]                 
------ ------------------------------------------------------------ ------------------------- --------------- -------- -------------------------------- --- -------------------- ------------------- ------------------------------- 
81     block_8_add (Eltwise, Add)                                   [b:None,h:2,w:2,c:8]                            32                      block_7_add   |                                          eltwise_of32[32]                
                                                                                                                                     block_8_project_BN   | 
------ ------------------------------------------------------------ ------------------------- --------------- -------- -------------------------------- --- -------------------- ------------------- ------------------------------- 
82     block_9_expand_conv2d (Conv2D, Conv2D)                       [b:None,h:2,w:2,c:48]     384/1,536          1,536                      block_8_add   | -1,536(-100.0%)      -1,536(-100.0%)     
------ ------------------------------------------------------------ ------------------------- --------------- -------- -------------------------------- --- -------------------- ------------------- ------------------------------- 
83     block_9_expand_BN (ScaleBias, BatchNormalization)            [b:None,h:2,w:2,c:48]     96/384               384            block_9_expand_conv2d   | -384(-100.0%)        -384(-100.0%)       
------ ------------------------------------------------------------ ------------------------- --------------- -------- -------------------------------- --- -------------------- ------------------- ------------------------------- 
84     block_9_expand_relu (Nonlinearity, ReLU)                     [b:None,h:2,w:2,c:48]                          192                block_9_expand_BN   | +1,728(+100.0%)      +1,776(+925.0%)     conv2d_of32[33]                 
------ ------------------------------------------------------------ ------------------------- --------------- -------- -------------------------------- --- -------------------- ------------------- ------------------------------- 
85     block_9_depthwise_conv2d (Conv2D, DepthwiseConv2D)           [b:None,h:2,w:2,c:48]     432/1,728          1,728              block_9_expand_relu   | -1,728(-100.0%)      -1,728(-100.0%)     
------ ------------------------------------------------------------ ------------------------- --------------- -------- -------------------------------- --- -------------------- ------------------- ------------------------------- 
86     block_9_depthwise_BN (ScaleBias, BatchNormalization)         [b:None,h:2,w:2,c:48]     96/384               384         block_9_depthwise_conv2d   | -384(-100.0%)        -384(-100.0%)       
------ ------------------------------------------------------------ ------------------------- --------------- -------- -------------------------------- --- -------------------- ------------------- ------------------------------- 
87     block_9_depthwise_relu (Nonlinearity, ReLU)                  [b:None,h:2,w:2,c:48]                          192             block_9_depthwise_BN   | +1,920(+100.0%)      +1,968(+1025.0%)    conv2d_of32[34]                 
------ ------------------------------------------------------------ ------------------------- --------------- -------- -------------------------------- --- -------------------- ------------------- ------------------------------- 
88     block_9_project_conv2d (Conv2D, Conv2D)                      [b:None,h:2,w:2,c:8]      384/1,536          1,536           block_9_depthwise_relu   | -1,536(-100.0%)      -1,536(-100.0%)     
------ ------------------------------------------------------------ ------------------------- --------------- -------- -------------------------------- --- -------------------- ------------------- ------------------------------- 
89     block_9_project_BN (ScaleBias, BatchNormalization)           [b:None,h:2,w:2,c:8]      16/64                 64           block_9_project_conv2d   | +1,504(+2350.0%)     +1,480(+2312.5%)    conv2d_of32[35]                 
------ ------------------------------------------------------------ ------------------------- --------------- -------- -------------------------------- --- -------------------- ------------------- ------------------------------- 
90     block_9_add (Eltwise, Add)                                   [b:None,h:2,w:2,c:8]                            32                      block_8_add   |                                          eltwise_of32[36]                
                                                                                                                                     block_9_project_BN   | 
------ ------------------------------------------------------------ ------------------------- --------------- -------- -------------------------------- --- -------------------- ------------------- ------------------------------- 
91     block_10_expand_conv2d (Conv2D, Conv2D)                      [b:None,h:2,w:2,c:48]     384/1,536          1,536                      block_9_add   | -1,536(-100.0%)      -1,536(-100.0%)     
------ ------------------------------------------------------------ ------------------------- --------------- -------- -------------------------------- --- -------------------- ------------------- ------------------------------- 
92     block_10_expand_BN (ScaleBias, BatchNormalization)           [b:None,h:2,w:2,c:48]     96/384               384           block_10_expand_conv2d   | -384(-100.0%)        -384(-100.0%)       
------ ------------------------------------------------------------ ------------------------- --------------- -------- -------------------------------- --- -------------------- ------------------- ------------------------------- 
93     block_10_expand_relu (Nonlinearity, ReLU)                    [b:None,h:2,w:2,c:48]                          192               block_10_expand_BN   | +1,728(+100.0%)      +1,776(+925.0%)     conv2d_of32[37]                 
------ ------------------------------------------------------------ ------------------------- --------------- -------- -------------------------------- --- -------------------- ------------------- ------------------------------- 
94     block_10_depthwise_conv2d (Conv2D, DepthwiseConv2D)          [b:None,h:2,w:2,c:48]     432/1,728          1,728             block_10_expand_relu   | -1,728(-100.0%)      -1,728(-100.0%)     
------ ------------------------------------------------------------ ------------------------- --------------- -------- -------------------------------- --- -------------------- ------------------- ------------------------------- 
95     block_10_depthwise_BN (ScaleBias, BatchNormalization)        [b:None,h:2,w:2,c:48]     96/384               384        block_10_depthwise_conv2d   | -384(-100.0%)        -384(-100.0%)       
------ ------------------------------------------------------------ ------------------------- --------------- -------- -------------------------------- --- -------------------- ------------------- ------------------------------- 
96     block_10_depthwise_relu (Nonlinearity, ReLU)                 [b:None,h:2,w:2,c:48]                          192            block_10_depthwise_BN   | +1,920(+100.0%)      +1,968(+1025.0%)    conv2d_of32[38]                 
------ ------------------------------------------------------------ ------------------------- --------------- -------- -------------------------------- --- -------------------- ------------------- ------------------------------- 
97     block_10_project_conv2d (Conv2D, Conv2D)                     [b:None,h:2,w:2,c:8]      384/1,536          1,536          block_10_depthwise_relu   | -1,536(-100.0%)      -1,536(-100.0%)     
------ ------------------------------------------------------------ ------------------------- --------------- -------- -------------------------------- --- -------------------- ------------------- ------------------------------- 
98     block_10_project_BN (ScaleBias, BatchNormalization)          [b:None,h:2,w:2,c:8]      16/64                 64          block_10_project_conv2d   | +1,504(+2350.0%)     +1,480(+2312.5%)    conv2d_of32[39]                 
------ ------------------------------------------------------------ ------------------------- --------------- -------- -------------------------------- --- -------------------- ------------------- ------------------------------- 
99     block_10_add (Eltwise, Add)                                  [b:None,h:2,w:2,c:8]                            32                      block_9_add   |                                          eltwise_of32[40]                
                                                                                                                                    block_10_project_BN   | 
------ ------------------------------------------------------------ ------------------------- --------------- -------- -------------------------------- --- -------------------- ------------------- ------------------------------- 
100    block_11_expand_conv2d (Conv2D, Conv2D)                      [b:None,h:2,w:2,c:48]     384/1,536          1,536                     block_10_add   | -1,536(-100.0%)      -1,536(-100.0%)     
------ ------------------------------------------------------------ ------------------------- --------------- -------- -------------------------------- --- -------------------- ------------------- ------------------------------- 
101    block_11_expand_BN (ScaleBias, BatchNormalization)           [b:None,h:2,w:2,c:48]     96/384               384           block_11_expand_conv2d   | -384(-100.0%)        -384(-100.0%)       
------ ------------------------------------------------------------ ------------------------- --------------- -------- -------------------------------- --- -------------------- ------------------- ------------------------------- 
102    block_11_expand_relu (Nonlinearity, ReLU)                    [b:None,h:2,w:2,c:48]                          192               block_11_expand_BN   | +1,728(+100.0%)      +1,776(+925.0%)     conv2d_of32[41]                 
------ ------------------------------------------------------------ ------------------------- --------------- -------- -------------------------------- --- -------------------- ------------------- ------------------------------- 
103    block_11_depthwise_conv2d (Conv2D, DepthwiseConv2D)          [b:None,h:2,w:2,c:48]     432/1,728          1,728             block_11_expand_relu   | -1,728(-100.0%)      -1,728(-100.0%)     
------ ------------------------------------------------------------ ------------------------- --------------- -------- -------------------------------- --- -------------------- ------------------- ------------------------------- 
104    block_11_depthwise_BN (ScaleBias, BatchNormalization)        [b:None,h:2,w:2,c:48]     96/384               384        block_11_depthwise_conv2d   | -384(-100.0%)        -384(-100.0%)       
------ ------------------------------------------------------------ ------------------------- --------------- -------- -------------------------------- --- -------------------- ------------------- ------------------------------- 
105    block_11_depthwise_relu (Nonlinearity, ReLU)                 [b:None,h:2,w:2,c:48]                          192            block_11_depthwise_BN   | +1,920(+100.0%)      +1,968(+1025.0%)    conv2d_of32[42]                 
------ ------------------------------------------------------------ ------------------------- --------------- -------- -------------------------------- --- -------------------- ------------------- ------------------------------- 
106    block_11_project_conv2d (Conv2D, Conv2D)                     [b:None,h:2,w:2,c:8]      384/1,536          1,536          block_11_depthwise_relu   | -1,536(-100.0%)      -1,536(-100.0%)     
------ ------------------------------------------------------------ ------------------------- --------------- -------- -------------------------------- --- -------------------- ------------------- ------------------------------- 
107    block_11_project_BN (ScaleBias, BatchNormalization)          [b:None,h:2,w:2,c:8]      16/64                 64          block_11_project_conv2d   | +1,504(+2350.0%)     +1,480(+2312.5%)    conv2d_of32[43]                 
------ ------------------------------------------------------------ ------------------------- --------------- -------- -------------------------------- --- -------------------- ------------------- ------------------------------- 
108    block_11_add (Eltwise, Add)                                  [b:None,h:2,w:2,c:8]                            32                     block_10_add   |                                          eltwise_of32[44]                
                                                                                                                                    block_11_project_BN   | 
------ ------------------------------------------------------------ ------------------------- --------------- -------- -------------------------------- --- -------------------- ------------------- ------------------------------- 
109    block_12_expand_conv2d (Conv2D, Conv2D)                      [b:None,h:2,w:2,c:48]     384/1,536          1,536                     block_11_add   | -1,536(-100.0%)      -1,536(-100.0%)     
------ ------------------------------------------------------------ ------------------------- --------------- -------- -------------------------------- --- -------------------- ------------------- ------------------------------- 
110    block_12_expand_BN (ScaleBias, BatchNormalization)           [b:None,h:2,w:2,c:48]     96/384               384           block_12_expand_conv2d   | -384(-100.0%)        -384(-100.0%)       
------ ------------------------------------------------------------ ------------------------- --------------- -------- -------------------------------- --- -------------------- ------------------- ------------------------------- 
111    block_12_expand_relu (Nonlinearity, ReLU)                    [b:None,h:2,w:2,c:48]                          192               block_12_expand_BN   | +1,728(+100.0%)      +1,776(+925.0%)     conv2d_of32[45]                 
------ ------------------------------------------------------------ ------------------------- --------------- -------- -------------------------------- --- -------------------- ------------------- ------------------------------- 
112    block_12_depthwise_conv2d (Conv2D, DepthwiseConv2D)          [b:None,h:2,w:2,c:48]     432/1,728          1,728             block_12_expand_relu   | -1,728(-100.0%)      -1,728(-100.0%)     
------ ------------------------------------------------------------ ------------------------- --------------- -------- -------------------------------- --- -------------------- ------------------- ------------------------------- 
113    block_12_depthwise_BN (ScaleBias, BatchNormalization)        [b:None,h:2,w:2,c:48]     96/384               384        block_12_depthwise_conv2d   | -384(-100.0%)        -384(-100.0%)       
------ ------------------------------------------------------------ ------------------------- --------------- -------- -------------------------------- --- -------------------- ------------------- ------------------------------- 
114    block_12_depthwise_relu (Nonlinearity, ReLU)                 [b:None,h:2,w:2,c:48]                          192            block_12_depthwise_BN   | +1,920(+100.0%)      +1,968(+1025.0%)    conv2d_of32[46]                 
------ ------------------------------------------------------------ ------------------------- --------------- -------- -------------------------------- --- -------------------- ------------------- ------------------------------- 
115    block_12_project_conv2d (Conv2D, Conv2D)                     [b:None,h:2,w:2,c:8]      384/1,536          1,536          block_12_depthwise_relu   | -1,536(-100.0%)      -1,536(-100.0%)     
------ ------------------------------------------------------------ ------------------------- --------------- -------- -------------------------------- --- -------------------- ------------------- ------------------------------- 
116    block_12_project_BN (ScaleBias, BatchNormalization)          [b:None,h:2,w:2,c:8]      16/64                 64          block_12_project_conv2d   | +1,504(+2350.0%)     +1,480(+2312.5%)    conv2d_of32[47]                 
------ ------------------------------------------------------------ ------------------------- --------------- -------- -------------------------------- --- -------------------- ------------------- ------------------------------- 
117    block_12_add (Eltwise, Add)                                  [b:None,h:2,w:2,c:8]                            32                     block_11_add   |                                          eltwise_of32[48]                
                                                                                                                                    block_12_project_BN   | 
------ ------------------------------------------------------------ ------------------------- --------------- -------- -------------------------------- --- -------------------- ------------------- ------------------------------- 
118    block_13_expand_conv2d (Conv2D, Conv2D)                      [b:None,h:2,w:2,c:48]     384/1,536          1,536                     block_12_add   | -1,536(-100.0%)      -1,536(-100.0%)     
------ ------------------------------------------------------------ ------------------------- --------------- -------- -------------------------------- --- -------------------- ------------------- ------------------------------- 
119    block_13_expand_BN (ScaleBias, BatchNormalization)           [b:None,h:2,w:2,c:48]     96/384               384           block_13_expand_conv2d   | -384(-100.0%)        -384(-100.0%)       
------ ------------------------------------------------------------ ------------------------- --------------- -------- -------------------------------- --- -------------------- ------------------- ------------------------------- 
120    block_13_expand_relu (Nonlinearity, ReLU)                    [b:None,h:2,w:2,c:48]                          192               block_13_expand_BN   | +1,728(+100.0%)      +1,776(+925.0%)     conv2d_of32[49]                 
------ ------------------------------------------------------------ ------------------------- --------------- -------- -------------------------------- --- -------------------- ------------------- ------------------------------- 
121    block_13_pad (Pad, ZeroPadding2D)                            [b:None,h:3,w:3,c:48]                                          block_13_expand_relu   |                                          
------ ------------------------------------------------------------ ------------------------- --------------- -------- -------------------------------- --- -------------------- ------------------- ------------------------------- 
122    block_13_depthwise_conv2d (Conv2D, DepthwiseConv2D)          [b:None,h:1,w:1,c:48]     432/1,728            432                     block_13_pad   | -1,728(-100.0%)      -432(-100.0%)       
------ ------------------------------------------------------------ ------------------------- --------------- -------- -------------------------------- --- -------------------- ------------------- ------------------------------- 
123    block_13_depthwise_BN (ScaleBias, BatchNormalization)        [b:None,h:1,w:1,c:48]     96/384                96        block_13_depthwise_conv2d   | -384(-100.0%)        -96(-100.0%)        
------ ------------------------------------------------------------ ------------------------- --------------- -------- -------------------------------- --- -------------------- ------------------- ------------------------------- 
124    block_13_depthwise_relu (Nonlinearity, ReLU)                 [b:None,h:1,w:1,c:48]                           48            block_13_depthwise_BN   | +1,920(+100.0%)      +528(+1100.0%)      conv2d_of32[50]                 
------ ------------------------------------------------------------ ------------------------- --------------- -------- -------------------------------- --- -------------------- ------------------- ------------------------------- 
125    block_13_project_conv2d (Conv2D, Conv2D)                     [b:None,h:1,w:1,c:8]      384/1,536            384          block_13_depthwise_relu   | -1,536(-100.0%)      -384(-100.0%)       
------ ------------------------------------------------------------ ------------------------- --------------- -------- -------------------------------- --- -------------------- ------------------- ------------------------------- 
126    block_13_project_BN (ScaleBias, BatchNormalization)          [b:None,h:1,w:1,c:8]      16/64                 16          block_13_project_conv2d   | +1,504(+2350.0%)     +376(+2350.0%)      conv2d_of32[51]                 
------ ------------------------------------------------------------ ------------------------- --------------- -------- -------------------------------- --- -------------------- ------------------- ------------------------------- 
127    block_14_expand_conv2d (Conv2D, Conv2D)                      [b:None,h:1,w:1,c:48]     384/1,536            384              block_13_project_BN   | -1,536(-100.0%)      -384(-100.0%)       
------ ------------------------------------------------------------ ------------------------- --------------- -------- -------------------------------- --- -------------------- ------------------- ------------------------------- 
128    block_14_expand_BN (ScaleBias, BatchNormalization)           [b:None,h:1,w:1,c:48]     96/384                96           block_14_expand_conv2d   | -384(-100.0%)        -96(-100.0%)        
------ ------------------------------------------------------------ ------------------------- --------------- -------- -------------------------------- --- -------------------- ------------------- ------------------------------- 
129    block_14_expand_relu (Nonlinearity, ReLU)                    [b:None,h:1,w:1,c:48]                           48               block_14_expand_BN   | +1,728(+100.0%)      +480(+1000.0%)      conv2d_of32[52]                 
------ ------------------------------------------------------------ ------------------------- --------------- -------- -------------------------------- --- -------------------- ------------------- ------------------------------- 
130    block_14_depthwise_conv2d (Conv2D, DepthwiseConv2D)          [b:None,h:1,w:1,c:48]     432/1,728            432             block_14_expand_relu   | -1,728(-100.0%)      -432(-100.0%)       
------ ------------------------------------------------------------ ------------------------- --------------- -------- -------------------------------- --- -------------------- ------------------- ------------------------------- 
131    block_14_depthwise_BN (ScaleBias, BatchNormalization)        [b:None,h:1,w:1,c:48]     96/384                96        block_14_depthwise_conv2d   | -384(-100.0%)        -96(-100.0%)        
------ ------------------------------------------------------------ ------------------------- --------------- -------- -------------------------------- --- -------------------- ------------------- ------------------------------- 
132    block_14_depthwise_relu (Nonlinearity, ReLU)                 [b:None,h:1,w:1,c:48]                           48            block_14_depthwise_BN   | +1,920(+100.0%)      +528(+1100.0%)      conv2d_of32[53]                 
------ ------------------------------------------------------------ ------------------------- --------------- -------- -------------------------------- --- -------------------- ------------------- ------------------------------- 
133    block_14_project_conv2d (Conv2D, Conv2D)                     [b:None,h:1,w:1,c:8]      384/1,536            384          block_14_depthwise_relu   | -1,536(-100.0%)      -384(-100.0%)       
------ ------------------------------------------------------------ ------------------------- --------------- -------- -------------------------------- --- -------------------- ------------------- ------------------------------- 
134    block_14_project_BN (ScaleBias, BatchNormalization)          [b:None,h:1,w:1,c:8]      16/64                 16          block_14_project_conv2d   | +1,504(+2350.0%)     +376(+2350.0%)      conv2d_of32[54]                 
------ ------------------------------------------------------------ ------------------------- --------------- -------- -------------------------------- --- -------------------- ------------------- ------------------------------- 
135    block_14_add (Eltwise, Add)                                  [b:None,h:1,w:1,c:8]                             8              block_13_project_BN   |                                          eltwise_of32[55]                
                                                                                                                                    block_14_project_BN   | 
------ ------------------------------------------------------------ ------------------------- --------------- -------- -------------------------------- --- -------------------- ------------------- ------------------------------- 
136    block_15_expand_conv2d (Conv2D, Conv2D)                      [b:None,h:1,w:1,c:48]     384/1,536            384                     block_14_add   | -1,536(-100.0%)      -384(-100.0%)       
------ ------------------------------------------------------------ ------------------------- --------------- -------- -------------------------------- --- -------------------- ------------------- ------------------------------- 
137    block_15_expand_BN (ScaleBias, BatchNormalization)           [b:None,h:1,w:1,c:48]     96/384                96           block_15_expand_conv2d   | -384(-100.0%)        -96(-100.0%)        
------ ------------------------------------------------------------ ------------------------- --------------- -------- -------------------------------- --- -------------------- ------------------- ------------------------------- 
138    block_15_expand_relu (Nonlinearity, ReLU)                    [b:None,h:1,w:1,c:48]                           48               block_15_expand_BN   | +1,728(+100.0%)      +480(+1000.0%)      conv2d_of32[56]                 
------ ------------------------------------------------------------ ------------------------- --------------- -------- -------------------------------- --- -------------------- ------------------- ------------------------------- 
139    block_15_depthwise_conv2d (Conv2D, DepthwiseConv2D)          [b:None,h:1,w:1,c:48]     432/1,728            432             block_15_expand_relu   | -1,728(-100.0%)      -432(-100.0%)       
------ ------------------------------------------------------------ ------------------------- --------------- -------- -------------------------------- --- -------------------- ------------------- ------------------------------- 
140    block_15_depthwise_BN (ScaleBias, BatchNormalization)        [b:None,h:1,w:1,c:48]     96/384                96        block_15_depthwise_conv2d   | -384(-100.0%)        -96(-100.0%)        
------ ------------------------------------------------------------ ------------------------- --------------- -------- -------------------------------- --- -------------------- ------------------- ------------------------------- 
141    block_15_depthwise_relu (Nonlinearity, ReLU)                 [b:None,h:1,w:1,c:48]                           48            block_15_depthwise_BN   | +1,920(+100.0%)      +528(+1100.0%)      conv2d_of32[57]                 
------ ------------------------------------------------------------ ------------------------- --------------- -------- -------------------------------- --- -------------------- ------------------- ------------------------------- 
142    block_15_project_conv2d (Conv2D, Conv2D)                     [b:None,h:1,w:1,c:8]      384/1,536            384          block_15_depthwise_relu   | -1,536(-100.0%)      -384(-100.0%)       
------ ------------------------------------------------------------ ------------------------- --------------- -------- -------------------------------- --- -------------------- ------------------- ------------------------------- 
143    block_15_project_BN (ScaleBias, BatchNormalization)          [b:None,h:1,w:1,c:8]      16/64                 16          block_15_project_conv2d   | +1,504(+2350.0%)     +376(+2350.0%)      conv2d_of32[58]                 
------ ------------------------------------------------------------ ------------------------- --------------- -------- -------------------------------- --- -------------------- ------------------- ------------------------------- 
144    block_15_add (Eltwise, Add)                                  [b:None,h:1,w:1,c:8]                             8                     block_14_add   |                                          eltwise_of32[59]                
                                                                                                                                    block_15_project_BN   | 
------ ------------------------------------------------------------ ------------------------- --------------- -------- -------------------------------- --- -------------------- ------------------- ------------------------------- 
145    block_16_expand_conv2d (Conv2D, Conv2D)                      [b:None,h:1,w:1,c:48]     384/1,536            384                     block_15_add   | -1,536(-100.0%)      -384(-100.0%)       
------ ------------------------------------------------------------ ------------------------- --------------- -------- -------------------------------- --- -------------------- ------------------- ------------------------------- 
146    block_16_expand_BN (ScaleBias, BatchNormalization)           [b:None,h:1,w:1,c:48]     96/384                96           block_16_expand_conv2d   | -384(-100.0%)        -96(-100.0%)        
------ ------------------------------------------------------------ ------------------------- --------------- -------- -------------------------------- --- -------------------- ------------------- ------------------------------- 
147    block_16_expand_relu (Nonlinearity, ReLU)                    [b:None,h:1,w:1,c:48]                           48               block_16_expand_BN   | +1,728(+100.0%)      +480(+1000.0%)      conv2d_of32[60]                 
------ ------------------------------------------------------------ ------------------------- --------------- -------- -------------------------------- --- -------------------- ------------------- ------------------------------- 
148    block_16_depthwise_conv2d (Conv2D, DepthwiseConv2D)          [b:None,h:1,w:1,c:48]     432/1,728            432             block_16_expand_relu   | -1,728(-100.0%)      -432(-100.0%)       
------ ------------------------------------------------------------ ------------------------- --------------- -------- -------------------------------- --- -------------------- ------------------- ------------------------------- 
149    block_16_depthwise_BN (ScaleBias, BatchNormalization)        [b:None,h:1,w:1,c:48]     96/384                96        block_16_depthwise_conv2d   | -384(-100.0%)        -96(-100.0%)        
------ ------------------------------------------------------------ ------------------------- --------------- -------- -------------------------------- --- -------------------- ------------------- ------------------------------- 
150    block_16_depthwise_relu (Nonlinearity, ReLU)                 [b:None,h:1,w:1,c:48]                           48            block_16_depthwise_BN   | +1,920(+100.0%)      +528(+1100.0%)      conv2d_of32[61]                 
------ ------------------------------------------------------------ ------------------------- --------------- -------- -------------------------------- --- -------------------- ------------------- ------------------------------- 
151    block_16_project_conv2d (Conv2D, Conv2D)                     [b:None,h:1,w:1,c:16]     768/3,072            768          block_16_depthwise_relu   | -3,072(-100.0%)      -768(-100.0%)       
------ ------------------------------------------------------------ ------------------------- --------------- -------- -------------------------------- --- -------------------- ------------------- ------------------------------- 
152    block_16_project_BN (ScaleBias, BatchNormalization)          [b:None,h:1,w:1,c:16]     32/128                32          block_16_project_conv2d   | +3,008(+2350.0%)     +752(+2350.0%)      conv2d_of32[62]                 
------ ------------------------------------------------------------ ------------------------- --------------- -------- -------------------------------- --- -------------------- ------------------- ------------------------------- 
153    Conv_1_conv2d (Conv2D, Conv2D)                               [b:None,h:1,w:1,c:1280]   20,480/81,920     20,480              block_16_project_BN   | -81,920(-100.0%)     -20,480(-100.0%)    
------ ------------------------------------------------------------ ------------------------- --------------- -------- -------------------------------- --- -------------------- ------------------- ------------------------------- 
154    Conv_1_bn (ScaleBias, BatchNormalization)                    [b:None,h:1,w:1,c:1280]   2,560/10,240       2,560                    Conv_1_conv2d   | -10,240(-100.0%)     -2,560(-100.0%)     
------ ------------------------------------------------------------ ------------------------- --------------- -------- -------------------------------- --- -------------------- ------------------- ------------------------------- 
155    out_relu (Nonlinearity, ReLU)                                [b:None,h:1,w:1,c:1280]                      1,280                        Conv_1_bn   | +87,040(+100.0%)     +23,040(+1800.0%)   conv2d_of32[63]                 
------ ------------------------------------------------------------ ------------------------- --------------- -------- -------------------------------- --- -------------------- ------------------- ------------------------------- 
1      reshape (Reshape, Reshape)                                   [b:1,h:1,c:1280]                                                           out_relu   |                                          
------ ------------------------------------------------------------ ------------------------- --------------- -------- -------------------------------- --- -------------------- ------------------- ------------------------------- 
2      dense_dense (Dense, Dense)                                   [b:1,h:1,c:8]             10,248/40,992     10,248                          reshape   | -40,992(-100.0%)     -10,248(-100.0%)    
       dense (Nonlinearity, Dense)                                  [b:1,h:1,c:8]                                    8                      dense_dense   |                      -8(-100.0%)         
------ ------------------------------------------------------------ ------------------------- --------------- -------- -------------------------------- --- -------------------- ------------------- ------------------------------- 
4      flatten (Reshape, Flatten)                                   [b:None,c:8]                                                                  dense   |                                          
------ ------------------------------------------------------------ ------------------------- --------------- -------- -------------------------------- --- -------------------- ------------------- ------------------------------- 
5      dense_1_dense (Dense, Dense)                                 [b:None,c:10]             90/360                90                          flatten   | -360(-100.0%)        -90(-100.0%)        
       dense_1 (Nonlinearity, Dense)                                [b:None,c:10]                                  150                    dense_1_dense   |                      -150(-100.0%)       
------ ------------------------------------------------------------ ------------------------- --------------- -------- -------------------------------- --- -------------------- ------------------- ------------------------------- 
model/c-model: macc=592,208/550,160 -42,048(-7.1%) weights=226,824/214,920 -11,904(-5.2%) activations=--/56,512 io=--/0



Generated C-graph summary
------------------------------------------------------------------------------------------------------------------------
model name            : cifar_3232
c-name                : network
c-node #              : 68
c-array #             : 177
activations size      : 56512 (1 segment)
weights size          : 214920 (1 segment)
macc                  : 550160
inputs                : ['input_0_output']
outputs               : ['dense_1_output']

C-Arrays (177)
------ ---------------------------------------- ------------- ------------------------- ------------- --------- --------- 
c_id   name (*_array)                           item/size     domain/mem-pool           c-type        fmt       comment   
------ ---------------------------------------- ------------- ------------------------- ------------- --------- --------- 
0      block_2_expand_conv2d_bias               48/192        weights/weights           const float   float32             
1      block_2_depthwise_conv2d_weights         432/1728      weights/weights           const float   float32             
2      block_2_depthwise_conv2d_bias            48/192        weights/weights           const float   float32             
3      block_2_project_conv2d_weights           384/1536      weights/weights           const float   float32             
4      block_2_project_conv2d_bias              8/32          weights/weights           const float   float32             
5      block_3_expand_conv2d_weights            384/1536      weights/weights           const float   float32             
6      block_3_expand_conv2d_bias               48/192        weights/weights           const float   float32             
7      block_3_depthwise_conv2d_weights         432/1728      weights/weights           const float   float32             
8      block_3_depthwise_conv2d_bias            48/192        weights/weights           const float   float32             
9      block_3_project_conv2d_weights           384/1536      weights/weights           const float   float32             
10     block_3_project_conv2d_bias              8/32          weights/weights           const float   float32             
11     block_4_expand_conv2d_weights            384/1536      weights/weights           const float   float32             
12     block_4_expand_conv2d_bias               48/192        weights/weights           const float   float32             
13     block_4_depthwise_conv2d_weights         432/1728      weights/weights           const float   float32             
14     block_4_depthwise_conv2d_bias            48/192        weights/weights           const float   float32             
15     block_4_project_conv2d_weights           384/1536      weights/weights           const float   float32             
16     block_4_project_conv2d_bias              8/32          weights/weights           const float   float32             
17     block_5_expand_conv2d_weights            384/1536      weights/weights           const float   float32             
18     block_5_expand_conv2d_bias               48/192        weights/weights           const float   float32             
19     block_5_depthwise_conv2d_weights         432/1728      weights/weights           const float   float32             
20     block_5_depthwise_conv2d_bias            48/192        weights/weights           const float   float32             
21     block_5_project_conv2d_weights           384/1536      weights/weights           const float   float32             
22     block_5_project_conv2d_bias              8/32          weights/weights           const float   float32             
23     block_6_expand_conv2d_weights            384/1536      weights/weights           const float   float32             
24     block_6_expand_conv2d_bias               48/192        weights/weights           const float   float32             
25     block_6_depthwise_conv2d_weights         432/1728      weights/weights           const float   float32             
26     block_6_depthwise_conv2d_bias            48/192        weights/weights           const float   float32             
27     block_6_project_conv2d_weights           384/1536      weights/weights           const float   float32             
28     block_6_project_conv2d_bias              8/32          weights/weights           const float   float32             
29     block_7_expand_conv2d_weights            384/1536      weights/weights           const float   float32             
30     block_7_expand_conv2d_bias               48/192        weights/weights           const float   float32             
31     block_7_depthwise_conv2d_weights         432/1728      weights/weights           const float   float32             
32     block_7_depthwise_conv2d_bias            48/192        weights/weights           const float   float32             
33     block_7_project_conv2d_weights           384/1536      weights/weights           const float   float32             
34     block_7_project_conv2d_bias              8/32          weights/weights           const float   float32             
35     block_8_expand_conv2d_weights            384/1536      weights/weights           const float   float32             
36     block_8_expand_conv2d_bias               48/192        weights/weights           const float   float32             
37     block_8_depthwise_conv2d_weights         432/1728      weights/weights           const float   float32             
38     block_8_depthwise_conv2d_bias            48/192        weights/weights           const float   float32             
39     block_8_project_conv2d_weights           384/1536      weights/weights           const float   float32             
40     block_8_project_conv2d_bias              8/32          weights/weights           const float   float32             
41     input_0_output                           3072/12288    activations/**default**   float         float32   /input    
42     block_9_expand_conv2d_weights            384/1536      weights/weights           const float   float32             
43     Conv1_conv2d_output                      2048/8192     activations/**default**   float         float32             
44     expanded_conv_depthwise_conv2d_output    2048/8192     activations/**default**   float         float32             
45     block_9_expand_conv2d_bias               48/192        weights/weights           const float   float32             
46     expanded_conv_project_conv2d_output      2048/8192     activations/**default**   float         float32             
47     expanded_conv_add_output                 2048/8192     activations/**default**   float         float32             
48     block_9_depthwise_conv2d_weights         432/1728      weights/weights           const float   float32             
49     block_1_expand_conv2d_output             12288/49152   activations/**default**   float         float32             
50     block_1_depthwise_conv2d_output          3072/12288    activations/**default**   float         float32             
51     block_9_depthwise_conv2d_bias            48/192        weights/weights           const float   float32             
52     block_1_project_conv2d_output            512/2048      activations/**default**   float         float32             
53     block_2_expand_conv2d_output             3072/12288    activations/**default**   float         float32             
54     block_9_project_conv2d_weights           384/1536      weights/weights           const float   float32             
55     block_2_depthwise_conv2d_output          3072/12288    activations/**default**   float         float32             
56     block_2_project_conv2d_output            512/2048      activations/**default**   float         float32             
57     block_9_project_conv2d_bias              8/32          weights/weights           const float   float32             
58     block_2_add_output                       512/2048      activations/**default**   float         float32             
59     block_3_expand_conv2d_output             3072/12288    activations/**default**   float         float32             
60     block_10_expand_conv2d_weights           384/1536      weights/weights           const float   float32             
61     block_3_depthwise_conv2d_output          768/3072      activations/**default**   float         float32             
62     block_3_project_conv2d_output            128/512       activations/**default**   float         float32             
63     block_10_expand_conv2d_bias              48/192        weights/weights           const float   float32             
64     block_4_expand_conv2d_output             768/3072      activations/**default**   float         float32             
65     block_4_depthwise_conv2d_output          768/3072      activations/**default**   float         float32             
66     block_10_depthwise_conv2d_weights        432/1728      weights/weights           const float   float32             
67     block_4_project_conv2d_output            128/512       activations/**default**   float         float32             
68     block_4_add_output                       128/512       activations/**default**   float         float32             
69     block_10_depthwise_conv2d_bias           48/192        weights/weights           const float   float32             
70     block_5_expand_conv2d_output             768/3072      activations/**default**   float         float32             
71     block_5_depthwise_conv2d_output          768/3072      activations/**default**   float         float32             
72     block_10_project_conv2d_weights          384/1536      weights/weights           const float   float32             
73     block_5_project_conv2d_output            128/512       activations/**default**   float         float32             
74     block_5_add_output                       128/512       activations/**default**   float         float32             
75     block_10_project_conv2d_bias             8/32          weights/weights           const float   float32             
76     block_6_expand_conv2d_output             768/3072      activations/**default**   float         float32             
77     block_6_depthwise_conv2d_output          192/768       activations/**default**   float         float32             
78     block_11_expand_conv2d_weights           384/1536      weights/weights           const float   float32             
79     block_6_project_conv2d_output            32/128        activations/**default**   float         float32             
80     block_7_expand_conv2d_output             192/768       activations/**default**   float         float32             
81     block_11_expand_conv2d_bias              48/192        weights/weights           const float   float32             
82     block_7_depthwise_conv2d_output          192/768       activations/**default**   float         float32             
83     block_7_project_conv2d_output            32/128        activations/**default**   float         float32             
84     block_11_depthwise_conv2d_weights        432/1728      weights/weights           const float   float32             
85     block_7_add_output                       32/128        activations/**default**   float         float32             
86     block_8_expand_conv2d_output             192/768       activations/**default**   float         float32             
87     block_11_depthwise_conv2d_bias           48/192        weights/weights           const float   float32             
88     block_8_depthwise_conv2d_output          192/768       activations/**default**   float         float32             
89     block_8_project_conv2d_output            32/128        activations/**default**   float         float32             
90     block_11_project_conv2d_weights          384/1536      weights/weights           const float   float32             
91     block_8_add_output                       32/128        activations/**default**   float         float32             
92     block_9_expand_conv2d_output             192/768       activations/**default**   float         float32             
93     block_11_project_conv2d_bias             8/32          weights/weights           const float   float32             
94     block_9_depthwise_conv2d_output          192/768       activations/**default**   float         float32             
95     block_9_project_conv2d_output            32/128        activations/**default**   float         float32             
96     block_12_expand_conv2d_weights           384/1536      weights/weights           const float   float32             
97     block_9_add_output                       32/128        activations/**default**   float         float32             
98     block_10_expand_conv2d_output            192/768       activations/**default**   float         float32             
99     block_12_expand_conv2d_bias              48/192        weights/weights           const float   float32             
100    block_10_depthwise_conv2d_output         192/768       activations/**default**   float         float32             
101    block_10_project_conv2d_output           32/128        activations/**default**   float         float32             
102    block_12_depthwise_conv2d_weights        432/1728      weights/weights           const float   float32             
103    block_10_add_output                      32/128        activations/**default**   float         float32             
104    block_11_expand_conv2d_output            192/768       activations/**default**   float         float32             
105    block_12_depthwise_conv2d_bias           48/192        weights/weights           const float   float32             
106    block_11_depthwise_conv2d_output         192/768       activations/**default**   float         float32             
107    block_11_project_conv2d_output           32/128        activations/**default**   float         float32             
108    block_12_project_conv2d_weights          384/1536      weights/weights           const float   float32             
109    block_11_add_output                      32/128        activations/**default**   float         float32             
110    block_12_expand_conv2d_output            192/768       activations/**default**   float         float32             
111    block_12_project_conv2d_bias             8/32          weights/weights           const float   float32             
112    block_12_depthwise_conv2d_output         192/768       activations/**default**   float         float32             
113    block_12_project_conv2d_output           32/128        activations/**default**   float         float32             
114    block_13_expand_conv2d_weights           384/1536      weights/weights           const float   float32             
115    block_12_add_output                      32/128        activations/**default**   float         float32             
116    block_13_expand_conv2d_output            192/768       activations/**default**   float         float32             
117    block_13_expand_conv2d_bias              48/192        weights/weights           const float   float32             
118    block_13_depthwise_conv2d_output         48/192        activations/**default**   float         float32             
119    block_13_project_conv2d_output           8/32          activations/**default**   float         float32             
120    block_13_depthwise_conv2d_weights        432/1728      weights/weights           const float   float32             
121    block_14_expand_conv2d_output            48/192        activations/**default**   float         float32             
122    block_14_depthwise_conv2d_output         48/192        activations/**default**   float         float32             
123    block_13_depthwise_conv2d_bias           48/192        weights/weights           const float   float32             
124    block_14_project_conv2d_output           8/32          activations/**default**   float         float32             
125    block_14_add_output                      8/32          activations/**default**   float         float32             
126    block_13_project_conv2d_weights          384/1536      weights/weights           const float   float32             
127    block_15_expand_conv2d_output            48/192        activations/**default**   float         float32             
128    block_15_depthwise_conv2d_output         48/192        activations/**default**   float         float32             
129    block_13_project_conv2d_bias             8/32          weights/weights           const float   float32             
130    block_15_project_conv2d_output           8/32          activations/**default**   float         float32             
131    block_15_add_output                      8/32          activations/**default**   float         float32             
132    block_14_expand_conv2d_weights           384/1536      weights/weights           const float   float32             
133    block_16_expand_conv2d_output            48/192        activations/**default**   float         float32             
134    block_16_depthwise_conv2d_output         48/192        activations/**default**   float         float32             
135    block_14_expand_conv2d_bias              48/192        weights/weights           const float   float32             
136    block_16_project_conv2d_output           16/64         activations/**default**   float         float32             
137    Conv_1_conv2d_output                     1280/5120     activations/**default**   float         float32             
138    block_14_depthwise_conv2d_weights        432/1728      weights/weights           const float   float32             
139    dense_dense_output                       8/32          activations/**default**   float         float32             
140    dense_output                             8/32          activations/**default**   float         float32             
141    block_14_depthwise_conv2d_bias           48/192        weights/weights           const float   float32             
142    dense_1_dense_output                     10/40         activations/**default**   float         float32             
143    dense_1_output                           10/40         activations/**default**   float         float32   /output   
144    block_14_project_conv2d_weights          384/1536      weights/weights           const float   float32             
145    block_14_project_conv2d_bias             8/32          weights/weights           const float   float32             
146    block_15_expand_conv2d_weights           384/1536      weights/weights           const float   float32             
147    block_15_expand_conv2d_bias              48/192        weights/weights           const float   float32             
148    block_15_depthwise_conv2d_weights        432/1728      weights/weights           const float   float32             
149    block_15_depthwise_conv2d_bias           48/192        weights/weights           const float   float32             
150    block_15_project_conv2d_weights          384/1536      weights/weights           const float   float32             
151    block_15_project_conv2d_bias             8/32          weights/weights           const float   float32             
152    block_16_expand_conv2d_weights           384/1536      weights/weights           const float   float32             
153    block_16_expand_conv2d_bias              48/192        weights/weights           const float   float32             
154    block_16_depthwise_conv2d_weights        432/1728      weights/weights           const float   float32             
155    block_16_depthwise_conv2d_bias           48/192        weights/weights           const float   float32             
156    block_16_project_conv2d_weights          768/3072      weights/weights           const float   float32             
157    block_16_project_conv2d_bias             16/64         weights/weights           const float   float32             
158    Conv_1_conv2d_weights                    20480/81920   weights/weights           const float   float32             
159    Conv_1_conv2d_bias                       1280/5120     weights/weights           const float   float32             
160    dense_dense_weights                      10240/40960   weights/weights           const float   float32             
161    dense_dense_bias                         8/32          weights/weights           const float   float32             
162    dense_1_dense_weights                    80/320        weights/weights           const float   float32             
163    dense_1_dense_bias                       10/40         weights/weights           const float   float32             
164    Conv1_conv2d_weights                     216/864       weights/weights           const float   float32             
165    Conv1_conv2d_bias                        8/32          weights/weights           const float   float32             
166    expanded_conv_depthwise_conv2d_weights   72/288        weights/weights           const float   float32             
167    expanded_conv_depthwise_conv2d_bias      8/32          weights/weights           const float   float32             
168    expanded_conv_project_conv2d_weights     64/256        weights/weights           const float   float32             
169    expanded_conv_project_conv2d_bias        8/32          weights/weights           const float   float32             
170    block_1_expand_conv2d_weights            384/1536      weights/weights           const float   float32             
171    block_1_expand_conv2d_bias               48/192        weights/weights           const float   float32             
172    block_1_depthwise_conv2d_weights         432/1728      weights/weights           const float   float32             
173    block_1_depthwise_conv2d_bias            48/192        weights/weights           const float   float32             
174    block_1_project_conv2d_weights           384/1536      weights/weights           const float   float32             
175    block_1_project_conv2d_bias              8/32          weights/weights           const float   float32             
176    block_2_expand_conv2d_weights            384/1536      weights/weights           const float   float32             
------ ---------------------------------------- ------------- ------------------------- ------------- --------- --------- 

C-Layers (68)
------ -------------------------------- ----- ------------ -------- ------- ------------------------------------------- --------------------- 
c_id   name (*_layer)                   id    layer_type   macc     rom     tensors                                     shape (array id)      
------ -------------------------------- ----- ------------ -------- ------- ------------------------------------------- --------------------- 
0      Conv1_conv2d                     3     conv2d       59400    896     I: input_0_output                           (1,32,32,3) (41)      
                                                                            W: Conv1_conv2d_weights                     (3,8,3,3) (164)       
                                                                            W: Conv1_conv2d_bias                        (1,1,1,8) (165)       
                                                                            O: Conv1_conv2d_output                      (1,16,16,8) (43)      
------ -------------------------------- ----- ------------ -------- ------- ------------------------------------------- --------------------- 
1      expanded_conv_depthwise_conv2d   6     conv2d       22536    320     I: Conv1_conv2d_output                      (1,16,16,8) (43)      
                                                                            W: expanded_conv_depthwise_conv2d_weights   (1,8,3,3) (166)       
                                                                            W: expanded_conv_depthwise_conv2d_bias      (1,1,1,8) (167)       
                                                                            O: expanded_conv_depthwise_conv2d_output    (1,16,16,8) (44)      
------ -------------------------------- ----- ------------ -------- ------- ------------------------------------------- --------------------- 
2      expanded_conv_project_conv2d     8     conv2d       16392    288     I: expanded_conv_depthwise_conv2d_output    (1,16,16,8) (44)      
                                                                            W: expanded_conv_project_conv2d_weights     (8,8,1,1) (168)       
                                                                            W: expanded_conv_project_conv2d_bias        (1,1,1,8) (169)       
                                                                            O: expanded_conv_project_conv2d_output      (1,16,16,8) (46)      
------ -------------------------------- ----- ------------ -------- ------- ------------------------------------------- --------------------- 
3      expanded_conv_add                9     eltwise      2048     0       I: Conv1_conv2d_output                      (1,16,16,8) (43)      
                                                                            I: expanded_conv_project_conv2d_output      (1,16,16,8) (46)      
                                                                            O: expanded_conv_add_output                 (1,16,16,8) (47)      
------ -------------------------------- ----- ------------ -------- ------- ------------------------------------------- --------------------- 
4      block_1_expand_conv2d            12    conv2d       122928   1728    I: expanded_conv_add_output                 (1,16,16,8) (47)      
                                                                            W: block_1_expand_conv2d_weights            (8,48,1,1) (170)      
                                                                            W: block_1_expand_conv2d_bias               (1,1,1,48) (171)      
                                                                            O: block_1_expand_conv2d_output             (1,16,16,48) (49)     
------ -------------------------------- ----- ------------ -------- ------- ------------------------------------------- --------------------- 
5      block_1_depthwise_conv2d         16    conv2d       33840    1920    I: block_1_expand_conv2d_output             (1,16,16,48) (49)     
                                                                            W: block_1_depthwise_conv2d_weights         (1,48,3,3) (172)      
                                                                            W: block_1_depthwise_conv2d_bias            (1,1,1,48) (173)      
                                                                            O: block_1_depthwise_conv2d_output          (1,8,8,48) (50)       
------ -------------------------------- ----- ------------ -------- ------- ------------------------------------------- --------------------- 
6      block_1_project_conv2d           18    conv2d       24584    1568    I: block_1_depthwise_conv2d_output          (1,8,8,48) (50)       
                                                                            W: block_1_project_conv2d_weights           (48,8,1,1) (174)      
                                                                            W: block_1_project_conv2d_bias              (1,1,1,8) (175)       
                                                                            O: block_1_project_conv2d_output            (1,8,8,8) (52)        
------ -------------------------------- ----- ------------ -------- ------- ------------------------------------------- --------------------- 
7      block_2_expand_conv2d            21    conv2d       30768    1728    I: block_1_project_conv2d_output            (1,8,8,8) (52)        
                                                                            W: block_2_expand_conv2d_weights            (8,48,1,1) (176)      
                                                                            W: block_2_expand_conv2d_bias               (1,1,1,48) (0)        
                                                                            O: block_2_expand_conv2d_output             (1,8,8,48) (53)       
------ -------------------------------- ----- ------------ -------- ------- ------------------------------------------- --------------------- 
8      block_2_depthwise_conv2d         24    conv2d       33840    1920    I: block_2_expand_conv2d_output             (1,8,8,48) (53)       
                                                                            W: block_2_depthwise_conv2d_weights         (1,48,3,3) (1)        
                                                                            W: block_2_depthwise_conv2d_bias            (1,1,1,48) (2)        
                                                                            O: block_2_depthwise_conv2d_output          (1,8,8,48) (55)       
------ -------------------------------- ----- ------------ -------- ------- ------------------------------------------- --------------------- 
9      block_2_project_conv2d           26    conv2d       24584    1568    I: block_2_depthwise_conv2d_output          (1,8,8,48) (55)       
                                                                            W: block_2_project_conv2d_weights           (48,8,1,1) (3)        
                                                                            W: block_2_project_conv2d_bias              (1,1,1,8) (4)         
                                                                            O: block_2_project_conv2d_output            (1,8,8,8) (56)        
------ -------------------------------- ----- ------------ -------- ------- ------------------------------------------- --------------------- 
10     block_2_add                      27    eltwise      512      0       I: block_1_project_conv2d_output            (1,8,8,8) (52)        
                                                                            I: block_2_project_conv2d_output            (1,8,8,8) (56)        
                                                                            O: block_2_add_output                       (1,8,8,8) (58)        
------ -------------------------------- ----- ------------ -------- ------- ------------------------------------------- --------------------- 
11     block_3_expand_conv2d            30    conv2d       30768    1728    I: block_2_add_output                       (1,8,8,8) (58)        
                                                                            W: block_3_expand_conv2d_weights            (8,48,1,1) (5)        
                                                                            W: block_3_expand_conv2d_bias               (1,1,1,48) (6)        
                                                                            O: block_3_expand_conv2d_output             (1,8,8,48) (59)       
------ -------------------------------- ----- ------------ -------- ------- ------------------------------------------- --------------------- 
12     block_3_depthwise_conv2d         34    conv2d       8496     1920    I: block_3_expand_conv2d_output             (1,8,8,48) (59)       
                                                                            W: block_3_depthwise_conv2d_weights         (1,48,3,3) (7)        
                                                                            W: block_3_depthwise_conv2d_bias            (1,1,1,48) (8)        
                                                                            O: block_3_depthwise_conv2d_output          (1,4,4,48) (61)       
------ -------------------------------- ----- ------------ -------- ------- ------------------------------------------- --------------------- 
13     block_3_project_conv2d           36    conv2d       6152     1568    I: block_3_depthwise_conv2d_output          (1,4,4,48) (61)       
                                                                            W: block_3_project_conv2d_weights           (48,8,1,1) (9)        
                                                                            W: block_3_project_conv2d_bias              (1,1,1,8) (10)        
                                                                            O: block_3_project_conv2d_output            (1,4,4,8) (62)        
------ -------------------------------- ----- ------------ -------- ------- ------------------------------------------- --------------------- 
14     block_4_expand_conv2d            39    conv2d       7728     1728    I: block_3_project_conv2d_output            (1,4,4,8) (62)        
                                                                            W: block_4_expand_conv2d_weights            (8,48,1,1) (11)       
                                                                            W: block_4_expand_conv2d_bias               (1,1,1,48) (12)       
                                                                            O: block_4_expand_conv2d_output             (1,4,4,48) (64)       
------ -------------------------------- ----- ------------ -------- ------- ------------------------------------------- --------------------- 
15     block_4_depthwise_conv2d         42    conv2d       8496     1920    I: block_4_expand_conv2d_output             (1,4,4,48) (64)       
                                                                            W: block_4_depthwise_conv2d_weights         (1,48,3,3) (13)       
                                                                            W: block_4_depthwise_conv2d_bias            (1,1,1,48) (14)       
                                                                            O: block_4_depthwise_conv2d_output          (1,4,4,48) (65)       
------ -------------------------------- ----- ------------ -------- ------- ------------------------------------------- --------------------- 
16     block_4_project_conv2d           44    conv2d       6152     1568    I: block_4_depthwise_conv2d_output          (1,4,4,48) (65)       
                                                                            W: block_4_project_conv2d_weights           (48,8,1,1) (15)       
                                                                            W: block_4_project_conv2d_bias              (1,1,1,8) (16)        
                                                                            O: block_4_project_conv2d_output            (1,4,4,8) (67)        
------ -------------------------------- ----- ------------ -------- ------- ------------------------------------------- --------------------- 
17     block_4_add                      45    eltwise      128      0       I: block_3_project_conv2d_output            (1,4,4,8) (62)        
                                                                            I: block_4_project_conv2d_output            (1,4,4,8) (67)        
                                                                            O: block_4_add_output                       (1,4,4,8) (68)        
------ -------------------------------- ----- ------------ -------- ------- ------------------------------------------- --------------------- 
18     block_5_expand_conv2d            48    conv2d       7728     1728    I: block_4_add_output                       (1,4,4,8) (68)        
                                                                            W: block_5_expand_conv2d_weights            (8,48,1,1) (17)       
                                                                            W: block_5_expand_conv2d_bias               (1,1,1,48) (18)       
                                                                            O: block_5_expand_conv2d_output             (1,4,4,48) (70)       
------ -------------------------------- ----- ------------ -------- ------- ------------------------------------------- --------------------- 
19     block_5_depthwise_conv2d         51    conv2d       8496     1920    I: block_5_expand_conv2d_output             (1,4,4,48) (70)       
                                                                            W: block_5_depthwise_conv2d_weights         (1,48,3,3) (19)       
                                                                            W: block_5_depthwise_conv2d_bias            (1,1,1,48) (20)       
                                                                            O: block_5_depthwise_conv2d_output          (1,4,4,48) (71)       
------ -------------------------------- ----- ------------ -------- ------- ------------------------------------------- --------------------- 
20     block_5_project_conv2d           53    conv2d       6152     1568    I: block_5_depthwise_conv2d_output          (1,4,4,48) (71)       
                                                                            W: block_5_project_conv2d_weights           (48,8,1,1) (21)       
                                                                            W: block_5_project_conv2d_bias              (1,1,1,8) (22)        
                                                                            O: block_5_project_conv2d_output            (1,4,4,8) (73)        
------ -------------------------------- ----- ------------ -------- ------- ------------------------------------------- --------------------- 
21     block_5_add                      54    eltwise      128      0       I: block_4_add_output                       (1,4,4,8) (68)        
                                                                            I: block_5_project_conv2d_output            (1,4,4,8) (73)        
                                                                            O: block_5_add_output                       (1,4,4,8) (74)        
------ -------------------------------- ----- ------------ -------- ------- ------------------------------------------- --------------------- 
22     block_6_expand_conv2d            57    conv2d       7728     1728    I: block_5_add_output                       (1,4,4,8) (74)        
                                                                            W: block_6_expand_conv2d_weights            (8,48,1,1) (23)       
                                                                            W: block_6_expand_conv2d_bias               (1,1,1,48) (24)       
                                                                            O: block_6_expand_conv2d_output             (1,4,4,48) (76)       
------ -------------------------------- ----- ------------ -------- ------- ------------------------------------------- --------------------- 
23     block_6_depthwise_conv2d         61    conv2d       2160     1920    I: block_6_expand_conv2d_output             (1,4,4,48) (76)       
                                                                            W: block_6_depthwise_conv2d_weights         (1,48,3,3) (25)       
                                                                            W: block_6_depthwise_conv2d_bias            (1,1,1,48) (26)       
                                                                            O: block_6_depthwise_conv2d_output          (1,2,2,48) (77)       
------ -------------------------------- ----- ------------ -------- ------- ------------------------------------------- --------------------- 
24     block_6_project_conv2d           63    conv2d       1544     1568    I: block_6_depthwise_conv2d_output          (1,2,2,48) (77)       
                                                                            W: block_6_project_conv2d_weights           (48,8,1,1) (27)       
                                                                            W: block_6_project_conv2d_bias              (1,1,1,8) (28)        
                                                                            O: block_6_project_conv2d_output            (1,2,2,8) (79)        
------ -------------------------------- ----- ------------ -------- ------- ------------------------------------------- --------------------- 
25     block_7_expand_conv2d            66    conv2d       1968     1728    I: block_6_project_conv2d_output            (1,2,2,8) (79)        
                                                                            W: block_7_expand_conv2d_weights            (8,48,1,1) (29)       
                                                                            W: block_7_expand_conv2d_bias               (1,1,1,48) (30)       
                                                                            O: block_7_expand_conv2d_output             (1,2,2,48) (80)       
------ -------------------------------- ----- ------------ -------- ------- ------------------------------------------- --------------------- 
26     block_7_depthwise_conv2d         69    conv2d       2160     1920    I: block_7_expand_conv2d_output             (1,2,2,48) (80)       
                                                                            W: block_7_depthwise_conv2d_weights         (1,48,3,3) (31)       
                                                                            W: block_7_depthwise_conv2d_bias            (1,1,1,48) (32)       
                                                                            O: block_7_depthwise_conv2d_output          (1,2,2,48) (82)       
------ -------------------------------- ----- ------------ -------- ------- ------------------------------------------- --------------------- 
27     block_7_project_conv2d           71    conv2d       1544     1568    I: block_7_depthwise_conv2d_output          (1,2,2,48) (82)       
                                                                            W: block_7_project_conv2d_weights           (48,8,1,1) (33)       
                                                                            W: block_7_project_conv2d_bias              (1,1,1,8) (34)        
                                                                            O: block_7_project_conv2d_output            (1,2,2,8) (83)        
------ -------------------------------- ----- ------------ -------- ------- ------------------------------------------- --------------------- 
28     block_7_add                      72    eltwise      32       0       I: block_6_project_conv2d_output            (1,2,2,8) (79)        
                                                                            I: block_7_project_conv2d_output            (1,2,2,8) (83)        
                                                                            O: block_7_add_output                       (1,2,2,8) (85)        
------ -------------------------------- ----- ------------ -------- ------- ------------------------------------------- --------------------- 
29     block_8_expand_conv2d            75    conv2d       1968     1728    I: block_7_add_output                       (1,2,2,8) (85)        
                                                                            W: block_8_expand_conv2d_weights            (8,48,1,1) (35)       
                                                                            W: block_8_expand_conv2d_bias               (1,1,1,48) (36)       
                                                                            O: block_8_expand_conv2d_output             (1,2,2,48) (86)       
------ -------------------------------- ----- ------------ -------- ------- ------------------------------------------- --------------------- 
30     block_8_depthwise_conv2d         78    conv2d       2160     1920    I: block_8_expand_conv2d_output             (1,2,2,48) (86)       
                                                                            W: block_8_depthwise_conv2d_weights         (1,48,3,3) (37)       
                                                                            W: block_8_depthwise_conv2d_bias            (1,1,1,48) (38)       
                                                                            O: block_8_depthwise_conv2d_output          (1,2,2,48) (88)       
------ -------------------------------- ----- ------------ -------- ------- ------------------------------------------- --------------------- 
31     block_8_project_conv2d           80    conv2d       1544     1568    I: block_8_depthwise_conv2d_output          (1,2,2,48) (88)       
                                                                            W: block_8_project_conv2d_weights           (48,8,1,1) (39)       
                                                                            W: block_8_project_conv2d_bias              (1,1,1,8) (40)        
                                                                            O: block_8_project_conv2d_output            (1,2,2,8) (89)        
------ -------------------------------- ----- ------------ -------- ------- ------------------------------------------- --------------------- 
32     block_8_add                      81    eltwise      32       0       I: block_7_add_output                       (1,2,2,8) (85)        
                                                                            I: block_8_project_conv2d_output            (1,2,2,8) (89)        
                                                                            O: block_8_add_output                       (1,2,2,8) (91)        
------ -------------------------------- ----- ------------ -------- ------- ------------------------------------------- --------------------- 
33     block_9_expand_conv2d            84    conv2d       1968     1728    I: block_8_add_output                       (1,2,2,8) (91)        
                                                                            W: block_9_expand_conv2d_weights            (8,48,1,1) (42)       
                                                                            W: block_9_expand_conv2d_bias               (1,1,1,48) (45)       
                                                                            O: block_9_expand_conv2d_output             (1,2,2,48) (92)       
------ -------------------------------- ----- ------------ -------- ------- ------------------------------------------- --------------------- 
34     block_9_depthwise_conv2d         87    conv2d       2160     1920    I: block_9_expand_conv2d_output             (1,2,2,48) (92)       
                                                                            W: block_9_depthwise_conv2d_weights         (1,48,3,3) (48)       
                                                                            W: block_9_depthwise_conv2d_bias            (1,1,1,48) (51)       
                                                                            O: block_9_depthwise_conv2d_output          (1,2,2,48) (94)       
------ -------------------------------- ----- ------------ -------- ------- ------------------------------------------- --------------------- 
35     block_9_project_conv2d           89    conv2d       1544     1568    I: block_9_depthwise_conv2d_output          (1,2,2,48) (94)       
                                                                            W: block_9_project_conv2d_weights           (48,8,1,1) (54)       
                                                                            W: block_9_project_conv2d_bias              (1,1,1,8) (57)        
                                                                            O: block_9_project_conv2d_output            (1,2,2,8) (95)        
------ -------------------------------- ----- ------------ -------- ------- ------------------------------------------- --------------------- 
36     block_9_add                      90    eltwise      32       0       I: block_8_add_output                       (1,2,2,8) (91)        
                                                                            I: block_9_project_conv2d_output            (1,2,2,8) (95)        
                                                                            O: block_9_add_output                       (1,2,2,8) (97)        
------ -------------------------------- ----- ------------ -------- ------- ------------------------------------------- --------------------- 
37     block_10_expand_conv2d           93    conv2d       1968     1728    I: block_9_add_output                       (1,2,2,8) (97)        
                                                                            W: block_10_expand_conv2d_weights           (8,48,1,1) (60)       
                                                                            W: block_10_expand_conv2d_bias              (1,1,1,48) (63)       
                                                                            O: block_10_expand_conv2d_output            (1,2,2,48) (98)       
------ -------------------------------- ----- ------------ -------- ------- ------------------------------------------- --------------------- 
38     block_10_depthwise_conv2d        96    conv2d       2160     1920    I: block_10_expand_conv2d_output            (1,2,2,48) (98)       
                                                                            W: block_10_depthwise_conv2d_weights        (1,48,3,3) (66)       
                                                                            W: block_10_depthwise_conv2d_bias           (1,1,1,48) (69)       
                                                                            O: block_10_depthwise_conv2d_output         (1,2,2,48) (100)      
------ -------------------------------- ----- ------------ -------- ------- ------------------------------------------- --------------------- 
39     block_10_project_conv2d          98    conv2d       1544     1568    I: block_10_depthwise_conv2d_output         (1,2,2,48) (100)      
                                                                            W: block_10_project_conv2d_weights          (48,8,1,1) (72)       
                                                                            W: block_10_project_conv2d_bias             (1,1,1,8) (75)        
                                                                            O: block_10_project_conv2d_output           (1,2,2,8) (101)       
------ -------------------------------- ----- ------------ -------- ------- ------------------------------------------- --------------------- 
40     block_10_add                     99    eltwise      32       0       I: block_9_add_output                       (1,2,2,8) (97)        
                                                                            I: block_10_project_conv2d_output           (1,2,2,8) (101)       
                                                                            O: block_10_add_output                      (1,2,2,8) (103)       
------ -------------------------------- ----- ------------ -------- ------- ------------------------------------------- --------------------- 
41     block_11_expand_conv2d           102   conv2d       1968     1728    I: block_10_add_output                      (1,2,2,8) (103)       
                                                                            W: block_11_expand_conv2d_weights           (8,48,1,1) (78)       
                                                                            W: block_11_expand_conv2d_bias              (1,1,1,48) (81)       
                                                                            O: block_11_expand_conv2d_output            (1,2,2,48) (104)      
------ -------------------------------- ----- ------------ -------- ------- ------------------------------------------- --------------------- 
42     block_11_depthwise_conv2d        105   conv2d       2160     1920    I: block_11_expand_conv2d_output            (1,2,2,48) (104)      
                                                                            W: block_11_depthwise_conv2d_weights        (1,48,3,3) (84)       
                                                                            W: block_11_depthwise_conv2d_bias           (1,1,1,48) (87)       
                                                                            O: block_11_depthwise_conv2d_output         (1,2,2,48) (106)      
------ -------------------------------- ----- ------------ -------- ------- ------------------------------------------- --------------------- 
43     block_11_project_conv2d          107   conv2d       1544     1568    I: block_11_depthwise_conv2d_output         (1,2,2,48) (106)      
                                                                            W: block_11_project_conv2d_weights          (48,8,1,1) (90)       
                                                                            W: block_11_project_conv2d_bias             (1,1,1,8) (93)        
                                                                            O: block_11_project_conv2d_output           (1,2,2,8) (107)       
------ -------------------------------- ----- ------------ -------- ------- ------------------------------------------- --------------------- 
44     block_11_add                     108   eltwise      32       0       I: block_10_add_output                      (1,2,2,8) (103)       
                                                                            I: block_11_project_conv2d_output           (1,2,2,8) (107)       
                                                                            O: block_11_add_output                      (1,2,2,8) (109)       
------ -------------------------------- ----- ------------ -------- ------- ------------------------------------------- --------------------- 
45     block_12_expand_conv2d           111   conv2d       1968     1728    I: block_11_add_output                      (1,2,2,8) (109)       
                                                                            W: block_12_expand_conv2d_weights           (8,48,1,1) (96)       
                                                                            W: block_12_expand_conv2d_bias              (1,1,1,48) (99)       
                                                                            O: block_12_expand_conv2d_output            (1,2,2,48) (110)      
------ -------------------------------- ----- ------------ -------- ------- ------------------------------------------- --------------------- 
46     block_12_depthwise_conv2d        114   conv2d       2160     1920    I: block_12_expand_conv2d_output            (1,2,2,48) (110)      
                                                                            W: block_12_depthwise_conv2d_weights        (1,48,3,3) (102)      
                                                                            W: block_12_depthwise_conv2d_bias           (1,1,1,48) (105)      
                                                                            O: block_12_depthwise_conv2d_output         (1,2,2,48) (112)      
------ -------------------------------- ----- ------------ -------- ------- ------------------------------------------- --------------------- 
47     block_12_project_conv2d          116   conv2d       1544     1568    I: block_12_depthwise_conv2d_output         (1,2,2,48) (112)      
                                                                            W: block_12_project_conv2d_weights          (48,8,1,1) (108)      
                                                                            W: block_12_project_conv2d_bias             (1,1,1,8) (111)       
                                                                            O: block_12_project_conv2d_output           (1,2,2,8) (113)       
------ -------------------------------- ----- ------------ -------- ------- ------------------------------------------- --------------------- 
48     block_12_add                     117   eltwise      32       0       I: block_11_add_output                      (1,2,2,8) (109)       
                                                                            I: block_12_project_conv2d_output           (1,2,2,8) (113)       
                                                                            O: block_12_add_output                      (1,2,2,8) (115)       
------ -------------------------------- ----- ------------ -------- ------- ------------------------------------------- --------------------- 
49     block_13_expand_conv2d           120   conv2d       1968     1728    I: block_12_add_output                      (1,2,2,8) (115)       
                                                                            W: block_13_expand_conv2d_weights           (8,48,1,1) (114)      
                                                                            W: block_13_expand_conv2d_bias              (1,1,1,48) (117)      
                                                                            O: block_13_expand_conv2d_output            (1,2,2,48) (116)      
------ -------------------------------- ----- ------------ -------- ------- ------------------------------------------- --------------------- 
50     block_13_depthwise_conv2d        124   conv2d       576      1920    I: block_13_expand_conv2d_output            (1,2,2,48) (116)      
                                                                            W: block_13_depthwise_conv2d_weights        (1,48,3,3) (120)      
                                                                            W: block_13_depthwise_conv2d_bias           (1,1,1,48) (123)      
                                                                            O: block_13_depthwise_conv2d_output         (1,1,1,48) (118)      
------ -------------------------------- ----- ------------ -------- ------- ------------------------------------------- --------------------- 
51     block_13_project_conv2d          126   conv2d       392      1568    I: block_13_depthwise_conv2d_output         (1,1,1,48) (118)      
                                                                            W: block_13_project_conv2d_weights          (48,8,1,1) (126)      
                                                                            W: block_13_project_conv2d_bias             (1,1,1,8) (129)       
                                                                            O: block_13_project_conv2d_output           (1,1,1,8) (119)       
------ -------------------------------- ----- ------------ -------- ------- ------------------------------------------- --------------------- 
52     block_14_expand_conv2d           129   conv2d       528      1728    I: block_13_project_conv2d_output           (1,1,1,8) (119)       
                                                                            W: block_14_expand_conv2d_weights           (8,48,1,1) (132)      
                                                                            W: block_14_expand_conv2d_bias              (1,1,1,48) (135)      
                                                                            O: block_14_expand_conv2d_output            (1,1,1,48) (121)      
------ -------------------------------- ----- ------------ -------- ------- ------------------------------------------- --------------------- 
53     block_14_depthwise_conv2d        132   conv2d       576      1920    I: block_14_expand_conv2d_output            (1,1,1,48) (121)      
                                                                            W: block_14_depthwise_conv2d_weights        (1,48,3,3) (138)      
                                                                            W: block_14_depthwise_conv2d_bias           (1,1,1,48) (141)      
                                                                            O: block_14_depthwise_conv2d_output         (1,1,1,48) (122)      
------ -------------------------------- ----- ------------ -------- ------- ------------------------------------------- --------------------- 
54     block_14_project_conv2d          134   conv2d       392      1568    I: block_14_depthwise_conv2d_output         (1,1,1,48) (122)      
                                                                            W: block_14_project_conv2d_weights          (48,8,1,1) (144)      
                                                                            W: block_14_project_conv2d_bias             (1,1,1,8) (145)       
                                                                            O: block_14_project_conv2d_output           (1,1,1,8) (124)       
------ -------------------------------- ----- ------------ -------- ------- ------------------------------------------- --------------------- 
55     block_14_add                     135   eltwise      8        0       I: block_13_project_conv2d_output           (1,1,1,8) (119)       
                                                                            I: block_14_project_conv2d_output           (1,1,1,8) (124)       
                                                                            O: block_14_add_output                      (1,1,1,8) (125)       
------ -------------------------------- ----- ------------ -------- ------- ------------------------------------------- --------------------- 
56     block_15_expand_conv2d           138   conv2d       528      1728    I: block_14_add_output                      (1,1,1,8) (125)       
                                                                            W: block_15_expand_conv2d_weights           (8,48,1,1) (146)      
                                                                            W: block_15_expand_conv2d_bias              (1,1,1,48) (147)      
                                                                            O: block_15_expand_conv2d_output            (1,1,1,48) (127)      
------ -------------------------------- ----- ------------ -------- ------- ------------------------------------------- --------------------- 
57     block_15_depthwise_conv2d        141   conv2d       576      1920    I: block_15_expand_conv2d_output            (1,1,1,48) (127)      
                                                                            W: block_15_depthwise_conv2d_weights        (1,48,3,3) (148)      
                                                                            W: block_15_depthwise_conv2d_bias           (1,1,1,48) (149)      
                                                                            O: block_15_depthwise_conv2d_output         (1,1,1,48) (128)      
------ -------------------------------- ----- ------------ -------- ------- ------------------------------------------- --------------------- 
58     block_15_project_conv2d          143   conv2d       392      1568    I: block_15_depthwise_conv2d_output         (1,1,1,48) (128)      
                                                                            W: block_15_project_conv2d_weights          (48,8,1,1) (150)      
                                                                            W: block_15_project_conv2d_bias             (1,1,1,8) (151)       
                                                                            O: block_15_project_conv2d_output           (1,1,1,8) (130)       
------ -------------------------------- ----- ------------ -------- ------- ------------------------------------------- --------------------- 
59     block_15_add                     144   eltwise      8        0       I: block_14_add_output                      (1,1,1,8) (125)       
                                                                            I: block_15_project_conv2d_output           (1,1,1,8) (130)       
                                                                            O: block_15_add_output                      (1,1,1,8) (131)       
------ -------------------------------- ----- ------------ -------- ------- ------------------------------------------- --------------------- 
60     block_16_expand_conv2d           147   conv2d       528      1728    I: block_15_add_output                      (1,1,1,8) (131)       
                                                                            W: block_16_expand_conv2d_weights           (8,48,1,1) (152)      
                                                                            W: block_16_expand_conv2d_bias              (1,1,1,48) (153)      
                                                                            O: block_16_expand_conv2d_output            (1,1,1,48) (133)      
------ -------------------------------- ----- ------------ -------- ------- ------------------------------------------- --------------------- 
61     block_16_depthwise_conv2d        150   conv2d       576      1920    I: block_16_expand_conv2d_output            (1,1,1,48) (133)      
                                                                            W: block_16_depthwise_conv2d_weights        (1,48,3,3) (154)      
                                                                            W: block_16_depthwise_conv2d_bias           (1,1,1,48) (155)      
                                                                            O: block_16_depthwise_conv2d_output         (1,1,1,48) (134)      
------ -------------------------------- ----- ------------ -------- ------- ------------------------------------------- --------------------- 
62     block_16_project_conv2d          152   conv2d       784      3136    I: block_16_depthwise_conv2d_output         (1,1,1,48) (134)      
                                                                            W: block_16_project_conv2d_weights          (48,16,1,1) (156)     
                                                                            W: block_16_project_conv2d_bias             (1,1,1,16) (157)      
                                                                            O: block_16_project_conv2d_output           (1,1,1,16) (136)      
------ -------------------------------- ----- ------------ -------- ------- ------------------------------------------- --------------------- 
63     Conv_1_conv2d                    155   conv2d       24320    87040   I: block_16_project_conv2d_output           (1,1,1,16) (136)      
                                                                            W: Conv_1_conv2d_weights                    (16,1280,1,1) (158)   
                                                                            W: Conv_1_conv2d_bias                       (1,1,1,1280) (159)    
                                                                            O: Conv_1_conv2d_output                     (1,1,1,1280) (137)    
------ -------------------------------- ----- ------------ -------- ------- ------------------------------------------- --------------------- 
64     dense_dense                      2     dense        10248    40992   I: Conv_1_conv2d_output                     (1,1,1,1280) (137)    
                                                                            W: dense_dense_weights                      (1280,1,1,8) (160)    
                                                                            W: dense_dense_bias                         (1,1,1,8) (161)       
                                                                            O: dense_dense_output                       (1,1,1,8) (139)       
------ -------------------------------- ----- ------------ -------- ------- ------------------------------------------- --------------------- 
65     dense                            2     nl           8        0       I: dense_dense_output                       (1,1,1,8) (139)       
                                                                            O: dense_output                             (1,1,1,8) (140)       
------ -------------------------------- ----- ------------ -------- ------- ------------------------------------------- --------------------- 
66     dense_1_dense                    5     dense        90       360     I: dense_output                             (1,1,1,8) (140)       
                                                                            W: dense_1_dense_weights                    (8,1,1,10) (162)      
                                                                            W: dense_1_dense_bias                       (1,1,1,10) (163)      
                                                                            O: dense_1_dense_output                     (1,1,1,10) (142)      
------ -------------------------------- ----- ------------ -------- ------- ------------------------------------------- --------------------- 
67     dense_1                          5     nl           150      0       I: dense_1_dense_output                     (1,1,1,10) (142)      
                                                                            O: dense_1_output                           (1,1,1,10) (143)      
------ -------------------------------- ----- ------------ -------- ------- ------------------------------------------- --------------------- 



Number of operations per c-layer
------- ------ ----------------------------------------- --------- -------------- -------- ---------- 
c_id    m_id   name (type)                                     #op           type   #param   sparsity 
------- ------ ----------------------------------------- --------- -------------- -------- ---------- 
0       3      Conv1_conv2d (conv2d)                        59,400   smul_f32_f32      224     0.0000 
1       6      expanded_conv_depthwise_conv2d (conv2d)      22,536   smul_f32_f32       80     0.0000 
2       8      expanded_conv_project_conv2d (conv2d)        16,392   smul_f32_f32       72     0.0000 
3       9      expanded_conv_add (eltwise)                   2,048     op_f32_f32          
4       12     block_1_expand_conv2d (conv2d)              122,928   smul_f32_f32      432     0.0000 
5       16     block_1_depthwise_conv2d (conv2d)            33,840   smul_f32_f32      480     0.0000 
6       18     block_1_project_conv2d (conv2d)              24,584   smul_f32_f32      392     0.0000 
7       21     block_2_expand_conv2d (conv2d)               30,768   smul_f32_f32      432     0.0000 
8       24     block_2_depthwise_conv2d (conv2d)            33,840   smul_f32_f32      480     0.0000 
9       26     block_2_project_conv2d (conv2d)              24,584   smul_f32_f32      392     0.0000 
10      27     block_2_add (eltwise)                           512     op_f32_f32          
11      30     block_3_expand_conv2d (conv2d)               30,768   smul_f32_f32      432     0.0000 
12      34     block_3_depthwise_conv2d (conv2d)             8,496   smul_f32_f32      480     0.0000 
13      36     block_3_project_conv2d (conv2d)               6,152   smul_f32_f32      392     0.0000 
14      39     block_4_expand_conv2d (conv2d)                7,728   smul_f32_f32      432     0.0000 
15      42     block_4_depthwise_conv2d (conv2d)             8,496   smul_f32_f32      480     0.0000 
16      44     block_4_project_conv2d (conv2d)               6,152   smul_f32_f32      392     0.0000 
17      45     block_4_add (eltwise)                           128     op_f32_f32          
18      48     block_5_expand_conv2d (conv2d)                7,728   smul_f32_f32      432     0.0000 
19      51     block_5_depthwise_conv2d (conv2d)             8,496   smul_f32_f32      480     0.0000 
20      53     block_5_project_conv2d (conv2d)               6,152   smul_f32_f32      392     0.0000 
21      54     block_5_add (eltwise)                           128     op_f32_f32          
22      57     block_6_expand_conv2d (conv2d)                7,728   smul_f32_f32      432     0.0000 
23      61     block_6_depthwise_conv2d (conv2d)             2,160   smul_f32_f32      480     0.0000 
24      63     block_6_project_conv2d (conv2d)               1,544   smul_f32_f32      392     0.0000 
25      66     block_7_expand_conv2d (conv2d)                1,968   smul_f32_f32      432     0.0000 
26      69     block_7_depthwise_conv2d (conv2d)             2,160   smul_f32_f32      480     0.0000 
27      71     block_7_project_conv2d (conv2d)               1,544   smul_f32_f32      392     0.0000 
28      72     block_7_add (eltwise)                            32     op_f32_f32          
29      75     block_8_expand_conv2d (conv2d)                1,968   smul_f32_f32      432     0.0000 
30      78     block_8_depthwise_conv2d (conv2d)             2,160   smul_f32_f32      480     0.0000 
31      80     block_8_project_conv2d (conv2d)               1,544   smul_f32_f32      392     0.0000 
32      81     block_8_add (eltwise)                            32     op_f32_f32          
33      84     block_9_expand_conv2d (conv2d)                1,968   smul_f32_f32      432     0.0000 
34      87     block_9_depthwise_conv2d (conv2d)             2,160   smul_f32_f32      480     0.0000 
35      89     block_9_project_conv2d (conv2d)               1,544   smul_f32_f32      392     0.0000 
36      90     block_9_add (eltwise)                            32     op_f32_f32          
37      93     block_10_expand_conv2d (conv2d)               1,968   smul_f32_f32      432     0.0000 
38      96     block_10_depthwise_conv2d (conv2d)            2,160   smul_f32_f32      480     0.0000 
39      98     block_10_project_conv2d (conv2d)              1,544   smul_f32_f32      392     0.0000 
40      99     block_10_add (eltwise)                           32     op_f32_f32          
41      102    block_11_expand_conv2d (conv2d)               1,968   smul_f32_f32      432     0.0000 
42      105    block_11_depthwise_conv2d (conv2d)            2,160   smul_f32_f32      480     0.0000 
43      107    block_11_project_conv2d (conv2d)              1,544   smul_f32_f32      392     0.0000 
44      108    block_11_add (eltwise)                           32     op_f32_f32          
45      111    block_12_expand_conv2d (conv2d)               1,968   smul_f32_f32      432     0.0000 
46      114    block_12_depthwise_conv2d (conv2d)            2,160   smul_f32_f32      480     0.0000 
47      116    block_12_project_conv2d (conv2d)              1,544   smul_f32_f32      392     0.0000 
48      117    block_12_add (eltwise)                           32     op_f32_f32          
49      120    block_13_expand_conv2d (conv2d)               1,968   smul_f32_f32      432     0.0000 
50      124    block_13_depthwise_conv2d (conv2d)              576   smul_f32_f32      480     0.0000 
51      126    block_13_project_conv2d (conv2d)                392   smul_f32_f32      392     0.0000 
52      129    block_14_expand_conv2d (conv2d)                 528   smul_f32_f32      432     0.0000 
53      132    block_14_depthwise_conv2d (conv2d)              576   smul_f32_f32      480     0.0000 
54      134    block_14_project_conv2d (conv2d)                392   smul_f32_f32      392     0.0000 
55      135    block_14_add (eltwise)                            8     op_f32_f32          
56      138    block_15_expand_conv2d (conv2d)                 528   smul_f32_f32      432     0.0000 
57      141    block_15_depthwise_conv2d (conv2d)              576   smul_f32_f32      480     0.0000 
58      143    block_15_project_conv2d (conv2d)                392   smul_f32_f32      392     0.0000 
59      144    block_15_add (eltwise)                            8     op_f32_f32          
60      147    block_16_expand_conv2d (conv2d)                 528   smul_f32_f32      432     0.0000 
61      150    block_16_depthwise_conv2d (conv2d)              576   smul_f32_f32      480     0.0000 
62      152    block_16_project_conv2d (conv2d)                784   smul_f32_f32      784     0.0000 
63      155    Conv_1_conv2d (conv2d)                       24,320   smul_f32_f32   21,760     0.0000 
64      2      dense_dense (dense)                          10,248   smul_f32_f32   10,248     0.0000 
65      2      dense (nl)                                        8     op_f32_f32          
66      5      dense_1_dense (dense)                            90   smul_f32_f32       90     0.0000 
67      5      dense_1 (nl)                                    150     op_f32_f32          
------- ------ ----------------------------------------- --------- -------------- -------- ---------- 
total                                                      550,160                  53,730     0.0000 

Number of operation types
---------------- --------- ----------- 
operation type           #           % 
---------------- --------- ----------- 
smul_f32_f32       546,978       99.4% 
op_f32_f32           3,182        0.6% 

Complexity report (model)
------ ------------------------------ ------------------------- ------------------------- ---------- 
m_id   name                           c_macc                    c_rom                     c_id       
------ ------------------------------ ------------------------- ------------------------- ---------- 
2      bn_Conv1                       ||                 1.9%   ||||||||          19.1%   [64, 65]   
3      Conv1_relu                     ||||||||          10.8%   |                  0.4%   [0]        
5      expanded_conv_depthwise_BN     |                  0.0%   |                  0.2%   [66, 67]   
6      expanded_conv_depthwise_relu   |||                4.1%   |                  0.1%   [1]        
8      expanded_conv_project_BN       |||                3.0%   |                  0.1%   [2]        
9      expanded_conv_add              |                  0.4%   |                  0.0%   [3]        
12     block_1_expand_relu            ||||||||||||||||  22.3%   |                  0.8%   [4]        
16     block_1_depthwise_relu         |||||              6.2%   |                  0.9%   [5]        
18     block_1_project_BN             |||                4.5%   |                  0.7%   [6]        
21     block_2_expand_relu            ||||               5.6%   |                  0.8%   [7]        
24     block_2_depthwise_relu         |||||              6.2%   |                  0.9%   [8]        
26     block_2_project_BN             |||                4.5%   |                  0.7%   [9]        
27     block_2_add                    |                  0.1%   |                  0.0%   [10]       
30     block_3_expand_relu            ||||               5.6%   |                  0.8%   [11]       
34     block_3_depthwise_relu         ||                 1.5%   |                  0.9%   [12]       
36     block_3_project_BN             |                  1.1%   |                  0.7%   [13]       
39     block_4_expand_relu            |                  1.4%   |                  0.8%   [14]       
42     block_4_depthwise_relu         ||                 1.5%   |                  0.9%   [15]       
44     block_4_project_BN             |                  1.1%   |                  0.7%   [16]       
45     block_4_add                    |                  0.0%   |                  0.0%   [17]       
48     block_5_expand_relu            |                  1.4%   |                  0.8%   [18]       
51     block_5_depthwise_relu         ||                 1.5%   |                  0.9%   [19]       
53     block_5_project_BN             |                  1.1%   |                  0.7%   [20]       
54     block_5_add                    |                  0.0%   |                  0.0%   [21]       
57     block_6_expand_relu            |                  1.4%   |                  0.8%   [22]       
61     block_6_depthwise_relu         |                  0.4%   |                  0.9%   [23]       
63     block_6_project_BN             |                  0.3%   |                  0.7%   [24]       
66     block_7_expand_relu            |                  0.4%   |                  0.8%   [25]       
69     block_7_depthwise_relu         |                  0.4%   |                  0.9%   [26]       
71     block_7_project_BN             |                  0.3%   |                  0.7%   [27]       
72     block_7_add                    |                  0.0%   |                  0.0%   [28]       
75     block_8_expand_relu            |                  0.4%   |                  0.8%   [29]       
78     block_8_depthwise_relu         |                  0.4%   |                  0.9%   [30]       
80     block_8_project_BN             |                  0.3%   |                  0.7%   [31]       
81     block_8_add                    |                  0.0%   |                  0.0%   [32]       
84     block_9_expand_relu            |                  0.4%   |                  0.8%   [33]       
87     block_9_depthwise_relu         |                  0.4%   |                  0.9%   [34]       
89     block_9_project_BN             |                  0.3%   |                  0.7%   [35]       
90     block_9_add                    |                  0.0%   |                  0.0%   [36]       
93     block_10_expand_relu           |                  0.4%   |                  0.8%   [37]       
96     block_10_depthwise_relu        |                  0.4%   |                  0.9%   [38]       
98     block_10_project_BN            |                  0.3%   |                  0.7%   [39]       
99     block_10_add                   |                  0.0%   |                  0.0%   [40]       
102    block_11_expand_relu           |                  0.4%   |                  0.8%   [41]       
105    block_11_depthwise_relu        |                  0.4%   |                  0.9%   [42]       
107    block_11_project_BN            |                  0.3%   |                  0.7%   [43]       
108    block_11_add                   |                  0.0%   |                  0.0%   [44]       
111    block_12_expand_relu           |                  0.4%   |                  0.8%   [45]       
114    block_12_depthwise_relu        |                  0.4%   |                  0.9%   [46]       
116    block_12_project_BN            |                  0.3%   |                  0.7%   [47]       
117    block_12_add                   |                  0.0%   |                  0.0%   [48]       
120    block_13_expand_relu           |                  0.4%   |                  0.8%   [49]       
124    block_13_depthwise_relu        |                  0.1%   |                  0.9%   [50]       
126    block_13_project_BN            |                  0.1%   |                  0.7%   [51]       
129    block_14_expand_relu           |                  0.1%   |                  0.8%   [52]       
132    block_14_depthwise_relu        |                  0.1%   |                  0.9%   [53]       
134    block_14_project_BN            |                  0.1%   |                  0.7%   [54]       
135    block_14_add                   |                  0.0%   |                  0.0%   [55]       
138    block_15_expand_relu           |                  0.1%   |                  0.8%   [56]       
141    block_15_depthwise_relu        |                  0.1%   |                  0.9%   [57]       
143    block_15_project_BN            |                  0.1%   |                  0.7%   [58]       
144    block_15_add                   |                  0.0%   |                  0.0%   [59]       
147    block_16_expand_relu           |                  0.1%   |                  0.8%   [60]       
150    block_16_depthwise_relu        |                  0.1%   |                  0.9%   [61]       
152    block_16_project_BN            |                  0.1%   |                  1.5%   [62]       
155    out_relu                       |||                4.4%   ||||||||||||||||  40.5%   [63]       
------ ------------------------------ ------------------------- ------------------------- ---------- 
macc=550,160 weights=214,920 act=56,512 ram_io=0

Generated files (7)
--------------------------------------------------------------- 
/home/pavel/.stm32cubemx/network_output/network_config.h        
/home/pavel/.stm32cubemx/network_output/network.h               
/home/pavel/.stm32cubemx/network_output/network.c               
/home/pavel/.stm32cubemx/network_output/network_data_params.h   
/home/pavel/.stm32cubemx/network_output/network_data_params.c   
/home/pavel/.stm32cubemx/network_output/network_data.h          
/home/pavel/.stm32cubemx/network_output/network_data.c          
