Neural Network Tools for STM32AI v1.7.0 (STM.ai v8.0.0-19389)
Created date          : 2023-04-11 10:48:23
Parameters            : generate --name network -m /home/pavel/STM32CubeIDE/workspace_1.3.0/stm32h_cam_AI3/model/CIFAR_32x32_V2_035.h5 --type keras --compression lossless --verbosity 1 --workspace /tmp/mxAI_workspace173425881389662315875794812295430602 --output /home/pavel/.stm32cubemx/network_output --allocate-inputs --series stm32h7 --allocate-outputs

Exec/report summary (generate)
-------------------------------------------------------------------------------------------------------------
model file         :   /home/pavel/STM32CubeIDE/workspace_1.3.0/stm32h_cam_AI3/model/CIFAR_32x32_V2_035.h5   
type               :   keras                                                                                 
c_name             :   network                                                                               
compression        :   lossless                                                                              
options            :   allocate-inputs, allocate-outputs                                                     
optimization       :   balanced                                                                              
target/series      :   stm32h7                                                                               
workspace dir      :   /tmp/mxAI_workspace173425881389662315875794812295430602                               
output dir         :   /home/pavel/.stm32cubemx/network_output                                               
model_fmt          :   float                                                                                 
model_name         :   CIFAR_32x32_V2_035                                                                    
model_hash         :   fe98b3bbf94fd053307e1960ba147c41                                                      
params #           :   406,466 items (1.55 MiB)                                                              
-------------------------------------------------------------------------------------------------------------
input 1/1          :   'input_0' (domain:activations/**default**)                                            
                   :   3072 items, 12.00 KiB, ai_float, float, (1,32,32,3)                                   
output 1/1         :   'dense_1' (domain:activations/**default**)                                            
                   :   10 items, 40 B, ai_float, float, (1,1,1,10)                                           
macc               :   1,310,080                                                                             
weights (ro)       :   1,597,704 B (1.52 MiB) (1 segment) / -28,160(-1.7%) vs float model                    
activations (rw)   :   56,512 B (55.19 KiB) (1 segment) *                                                    
ram (total)        :   56,512 B (55.19 KiB) = 56,512 + 0 + 0                                                 
-------------------------------------------------------------------------------------------------------------
(*) 'input'/'output' buffers can be used from the activations buffer

Model name - CIFAR_32x32_V2_035 ['input_0'] ['dense_1']
------ ------------------------------------------------------------ ------------------------- ----------------- --------- -------------------------------- --- --------------------- --------------------- ------------------------------- 
m_id   layer (type,original)                                        oshape                    param/size             macc                     connected to   | c_size                c_macc                c_type                          
------ ------------------------------------------------------------ ------------------------- ----------------- --------- -------------------------------- --- --------------------- --------------------- ------------------------------- 
0      input_0 (Input, None)                                        [b:None,h:32,w:32,c:3]                                                                   |                                             
------ ------------------------------------------------------------ ------------------------- ----------------- --------- -------------------------------- --- --------------------- --------------------- ------------------------------- 
1      Conv1_conv2d (Conv2D, Conv2D)                                [b:None,h:16,w:16,c:16]   432/1,728           110,592                          input_0   | -1,728(-100.0%)       -110,592(-100.0%)     
------ ------------------------------------------------------------ ------------------------- ----------------- --------- -------------------------------- --- --------------------- --------------------- ------------------------------- 
2      bn_Conv1 (ScaleBias, BatchNormalization)                     [b:None,h:16,w:16,c:16]   32/128                8,192                     Conv1_conv2d   | +40,864(+31925.0%)    +2,064(+25.2%)        dense_of32/nl_of32[62, 63]      
------ ------------------------------------------------------------ ------------------------- ----------------- --------- -------------------------------- --- --------------------- --------------------- ------------------------------- 
3      Conv1_relu (Nonlinearity, ReLU)                              [b:None,h:16,w:16,c:16]                         4,096                         bn_Conv1   | +1,792(+100.0%)       +114,704(+2800.4%)    conv2d_of32[0]                  
------ ------------------------------------------------------------ ------------------------- ----------------- --------- -------------------------------- --- --------------------- --------------------- ------------------------------- 
4      expanded_conv_depthwise_conv2d (Conv2D, DepthwiseConv2D)     [b:None,h:16,w:16,c:16]   144/576              36,864                       Conv1_relu   | -576(-100.0%)         -36,864(-100.0%)      
------ ------------------------------------------------------------ ------------------------- ----------------- --------- -------------------------------- --- --------------------- --------------------- ------------------------------- 
5      expanded_conv_depthwise_BN (ScaleBias, BatchNormalization)   [b:None,h:16,w:16,c:16]   32/128                8,192   expanded_conv_depthwise_conv2d   | +232(+181.2%)         -7,952(-97.1%)        dense_of32/nl_of32[o][64, 65]   
------ ------------------------------------------------------------ ------------------------- ----------------- --------- -------------------------------- --- --------------------- --------------------- ------------------------------- 
6      expanded_conv_depthwise_relu (Nonlinearity, ReLU)            [b:None,h:16,w:16,c:16]                         4,096       expanded_conv_depthwise_BN   | +640(+100.0%)         +40,976(+1000.4%)     conv2d_of32[1]                  
------ ------------------------------------------------------------ ------------------------- ----------------- --------- -------------------------------- --- --------------------- --------------------- ------------------------------- 
7      expanded_conv_project_conv2d (Conv2D, Conv2D)                [b:None,h:16,w:16,c:8]    128/512              32,768     expanded_conv_depthwise_relu   | -512(-100.0%)         -32,768(-100.0%)      
------ ------------------------------------------------------------ ------------------------- ----------------- --------- -------------------------------- --- --------------------- --------------------- ------------------------------- 
8      expanded_conv_project_BN (ScaleBias, BatchNormalization)     [b:None,h:16,w:16,c:8]    16/64                 4,096     expanded_conv_project_conv2d   | +480(+750.0%)         +28,680(+700.2%)      conv2d_of32[2]                  
------ ------------------------------------------------------------ ------------------------- ----------------- --------- -------------------------------- --- --------------------- --------------------- ------------------------------- 
9      block_1_expand_conv2d (Conv2D, Conv2D)                       [b:None,h:16,w:16,c:48]   384/1,536            98,304         expanded_conv_project_BN   | -1,536(-100.0%)       -98,304(-100.0%)      
------ ------------------------------------------------------------ ------------------------- ----------------- --------- -------------------------------- --- --------------------- --------------------- ------------------------------- 
10     block_1_expand_BN (ScaleBias, BatchNormalization)            [b:None,h:16,w:16,c:48]   96/384               24,576            block_1_expand_conv2d   | -384(-100.0%)         -24,576(-100.0%)      
------ ------------------------------------------------------------ ------------------------- ----------------- --------- -------------------------------- --- --------------------- --------------------- ------------------------------- 
11     block_1_expand_relu (Nonlinearity, ReLU)                     [b:None,h:16,w:16,c:48]                        12,288                block_1_expand_BN   | +1,728(+100.0%)       +110,640(+900.4%)     conv2d_of32[3]                  
------ ------------------------------------------------------------ ------------------------- ----------------- --------- -------------------------------- --- --------------------- --------------------- ------------------------------- 
12     block_1_pad (Pad, ZeroPadding2D)                             [b:None,h:17,w:17,c:48]                                            block_1_expand_relu   |                                             
------ ------------------------------------------------------------ ------------------------- ----------------- --------- -------------------------------- --- --------------------- --------------------- ------------------------------- 
13     block_1_depthwise_conv2d (Conv2D, DepthwiseConv2D)           [b:None,h:8,w:8,c:48]     432/1,728            27,648                      block_1_pad   | -1,728(-100.0%)       -27,648(-100.0%)      
------ ------------------------------------------------------------ ------------------------- ----------------- --------- -------------------------------- --- --------------------- --------------------- ------------------------------- 
14     block_1_depthwise_BN (ScaleBias, BatchNormalization)         [b:None,h:8,w:8,c:48]     96/384                6,144         block_1_depthwise_conv2d   | -384(-100.0%)         -6,144(-100.0%)       
------ ------------------------------------------------------------ ------------------------- ----------------- --------- -------------------------------- --- --------------------- --------------------- ------------------------------- 
15     block_1_depthwise_relu (Nonlinearity, ReLU)                  [b:None,h:8,w:8,c:48]                           3,072             block_1_depthwise_BN   | +1,920(+100.0%)       +30,768(+1001.6%)     conv2d_of32[4]                  
------ ------------------------------------------------------------ ------------------------- ----------------- --------- -------------------------------- --- --------------------- --------------------- ------------------------------- 
16     block_1_project_conv2d (Conv2D, Conv2D)                      [b:None,h:8,w:8,c:8]      384/1,536            24,576           block_1_depthwise_relu   | -1,536(-100.0%)       -24,576(-100.0%)      
------ ------------------------------------------------------------ ------------------------- ----------------- --------- -------------------------------- --- --------------------- --------------------- ------------------------------- 
17     block_1_project_BN (ScaleBias, BatchNormalization)           [b:None,h:8,w:8,c:8]      16/64                 1,024           block_1_project_conv2d   | +1,504(+2350.0%)      +23,560(+2300.8%)     conv2d_of32[5]                  
------ ------------------------------------------------------------ ------------------------- ----------------- --------- -------------------------------- --- --------------------- --------------------- ------------------------------- 
18     block_2_expand_conv2d (Conv2D, Conv2D)                       [b:None,h:8,w:8,c:48]     384/1,536            24,576               block_1_project_BN   | -1,536(-100.0%)       -24,576(-100.0%)      
------ ------------------------------------------------------------ ------------------------- ----------------- --------- -------------------------------- --- --------------------- --------------------- ------------------------------- 
19     block_2_expand_BN (ScaleBias, BatchNormalization)            [b:None,h:8,w:8,c:48]     96/384                6,144            block_2_expand_conv2d   | -384(-100.0%)         -6,144(-100.0%)       
------ ------------------------------------------------------------ ------------------------- ----------------- --------- -------------------------------- --- --------------------- --------------------- ------------------------------- 
20     block_2_expand_relu (Nonlinearity, ReLU)                     [b:None,h:8,w:8,c:48]                           3,072                block_2_expand_BN   | +1,728(+100.0%)       +27,696(+901.6%)      conv2d_of32[6]                  
------ ------------------------------------------------------------ ------------------------- ----------------- --------- -------------------------------- --- --------------------- --------------------- ------------------------------- 
21     block_2_depthwise_conv2d (Conv2D, DepthwiseConv2D)           [b:None,h:8,w:8,c:48]     432/1,728            27,648              block_2_expand_relu   | -1,728(-100.0%)       -27,648(-100.0%)      
------ ------------------------------------------------------------ ------------------------- ----------------- --------- -------------------------------- --- --------------------- --------------------- ------------------------------- 
22     block_2_depthwise_BN (ScaleBias, BatchNormalization)         [b:None,h:8,w:8,c:48]     96/384                6,144         block_2_depthwise_conv2d   | -384(-100.0%)         -6,144(-100.0%)       
------ ------------------------------------------------------------ ------------------------- ----------------- --------- -------------------------------- --- --------------------- --------------------- ------------------------------- 
23     block_2_depthwise_relu (Nonlinearity, ReLU)                  [b:None,h:8,w:8,c:48]                           3,072             block_2_depthwise_BN   | +1,920(+100.0%)       +30,768(+1001.6%)     conv2d_of32[7]                  
------ ------------------------------------------------------------ ------------------------- ----------------- --------- -------------------------------- --- --------------------- --------------------- ------------------------------- 
24     block_2_project_conv2d (Conv2D, Conv2D)                      [b:None,h:8,w:8,c:8]      384/1,536            24,576           block_2_depthwise_relu   | -1,536(-100.0%)       -24,576(-100.0%)      
------ ------------------------------------------------------------ ------------------------- ----------------- --------- -------------------------------- --- --------------------- --------------------- ------------------------------- 
25     block_2_project_BN (ScaleBias, BatchNormalization)           [b:None,h:8,w:8,c:8]      16/64                 1,024           block_2_project_conv2d   | +1,504(+2350.0%)      +23,560(+2300.8%)     conv2d_of32[8]                  
------ ------------------------------------------------------------ ------------------------- ----------------- --------- -------------------------------- --- --------------------- --------------------- ------------------------------- 
26     block_2_add (Eltwise, Add)                                   [b:None,h:8,w:8,c:8]                              512               block_1_project_BN   |                                             eltwise_of32[9]                 
                                                                                                                                        block_2_project_BN   | 
------ ------------------------------------------------------------ ------------------------- ----------------- --------- -------------------------------- --- --------------------- --------------------- ------------------------------- 
27     block_3_expand_conv2d (Conv2D, Conv2D)                       [b:None,h:8,w:8,c:48]     384/1,536            24,576                      block_2_add   | -1,536(-100.0%)       -24,576(-100.0%)      
------ ------------------------------------------------------------ ------------------------- ----------------- --------- -------------------------------- --- --------------------- --------------------- ------------------------------- 
28     block_3_expand_BN (ScaleBias, BatchNormalization)            [b:None,h:8,w:8,c:48]     96/384                6,144            block_3_expand_conv2d   | -384(-100.0%)         -6,144(-100.0%)       
------ ------------------------------------------------------------ ------------------------- ----------------- --------- -------------------------------- --- --------------------- --------------------- ------------------------------- 
29     block_3_expand_relu (Nonlinearity, ReLU)                     [b:None,h:8,w:8,c:48]                           3,072                block_3_expand_BN   | +1,728(+100.0%)       +27,696(+901.6%)      conv2d_of32[10]                 
------ ------------------------------------------------------------ ------------------------- ----------------- --------- -------------------------------- --- --------------------- --------------------- ------------------------------- 
30     block_3_pad (Pad, ZeroPadding2D)                             [b:None,h:9,w:9,c:48]                                              block_3_expand_relu   |                                             
------ ------------------------------------------------------------ ------------------------- ----------------- --------- -------------------------------- --- --------------------- --------------------- ------------------------------- 
31     block_3_depthwise_conv2d (Conv2D, DepthwiseConv2D)           [b:None,h:4,w:4,c:48]     432/1,728             6,912                      block_3_pad   | -1,728(-100.0%)       -6,912(-100.0%)       
------ ------------------------------------------------------------ ------------------------- ----------------- --------- -------------------------------- --- --------------------- --------------------- ------------------------------- 
32     block_3_depthwise_BN (ScaleBias, BatchNormalization)         [b:None,h:4,w:4,c:48]     96/384                1,536         block_3_depthwise_conv2d   | -384(-100.0%)         -1,536(-100.0%)       
------ ------------------------------------------------------------ ------------------------- ----------------- --------- -------------------------------- --- --------------------- --------------------- ------------------------------- 
33     block_3_depthwise_relu (Nonlinearity, ReLU)                  [b:None,h:4,w:4,c:48]                             768             block_3_depthwise_BN   | +1,920(+100.0%)       +7,728(+1006.2%)      conv2d_of32[11]                 
------ ------------------------------------------------------------ ------------------------- ----------------- --------- -------------------------------- --- --------------------- --------------------- ------------------------------- 
34     block_3_project_conv2d (Conv2D, Conv2D)                      [b:None,h:4,w:4,c:16]     768/3,072            12,288           block_3_depthwise_relu   | -3,072(-100.0%)       -12,288(-100.0%)      
------ ------------------------------------------------------------ ------------------------- ----------------- --------- -------------------------------- --- --------------------- --------------------- ------------------------------- 
35     block_3_project_BN (ScaleBias, BatchNormalization)           [b:None,h:4,w:4,c:16]     32/128                  512           block_3_project_conv2d   | +3,008(+2350.0%)      +11,792(+2303.1%)     conv2d_of32[12]                 
------ ------------------------------------------------------------ ------------------------- ----------------- --------- -------------------------------- --- --------------------- --------------------- ------------------------------- 
36     block_4_expand_conv2d (Conv2D, Conv2D)                       [b:None,h:4,w:4,c:96]     1,536/6,144          24,576               block_3_project_BN   | -6,144(-100.0%)       -24,576(-100.0%)      
------ ------------------------------------------------------------ ------------------------- ----------------- --------- -------------------------------- --- --------------------- --------------------- ------------------------------- 
37     block_4_expand_BN (ScaleBias, BatchNormalization)            [b:None,h:4,w:4,c:96]     192/768               3,072            block_4_expand_conv2d   | -768(-100.0%)         -3,072(-100.0%)       
------ ------------------------------------------------------------ ------------------------- ----------------- --------- -------------------------------- --- --------------------- --------------------- ------------------------------- 
38     block_4_expand_relu (Nonlinearity, ReLU)                     [b:None,h:4,w:4,c:96]                           1,536                block_4_expand_BN   | +6,528(+100.0%)       +26,208(+1706.2%)     conv2d_of32[13]                 
------ ------------------------------------------------------------ ------------------------- ----------------- --------- -------------------------------- --- --------------------- --------------------- ------------------------------- 
39     block_4_depthwise_conv2d (Conv2D, DepthwiseConv2D)           [b:None,h:4,w:4,c:96]     864/3,456            13,824              block_4_expand_relu   | -3,456(-100.0%)       -13,824(-100.0%)      
------ ------------------------------------------------------------ ------------------------- ----------------- --------- -------------------------------- --- --------------------- --------------------- ------------------------------- 
40     block_4_depthwise_BN (ScaleBias, BatchNormalization)         [b:None,h:4,w:4,c:96]     192/768               3,072         block_4_depthwise_conv2d   | -768(-100.0%)         -3,072(-100.0%)       
------ ------------------------------------------------------------ ------------------------- ----------------- --------- -------------------------------- --- --------------------- --------------------- ------------------------------- 
41     block_4_depthwise_relu (Nonlinearity, ReLU)                  [b:None,h:4,w:4,c:96]                           1,536             block_4_depthwise_BN   | +3,840(+100.0%)       +15,456(+1006.2%)     conv2d_of32[14]                 
------ ------------------------------------------------------------ ------------------------- ----------------- --------- -------------------------------- --- --------------------- --------------------- ------------------------------- 
42     block_4_project_conv2d (Conv2D, Conv2D)                      [b:None,h:4,w:4,c:16]     1,536/6,144          24,576           block_4_depthwise_relu   | -6,144(-100.0%)       -24,576(-100.0%)      
------ ------------------------------------------------------------ ------------------------- ----------------- --------- -------------------------------- --- --------------------- --------------------- ------------------------------- 
43     block_4_project_BN (ScaleBias, BatchNormalization)           [b:None,h:4,w:4,c:16]     32/128                  512           block_4_project_conv2d   | +6,080(+4750.0%)      +24,080(+4703.1%)     conv2d_of32[15]                 
------ ------------------------------------------------------------ ------------------------- ----------------- --------- -------------------------------- --- --------------------- --------------------- ------------------------------- 
44     block_4_add (Eltwise, Add)                                   [b:None,h:4,w:4,c:16]                             256               block_3_project_BN   |                                             eltwise_of32[16]                
                                                                                                                                        block_4_project_BN   | 
------ ------------------------------------------------------------ ------------------------- ----------------- --------- -------------------------------- --- --------------------- --------------------- ------------------------------- 
45     block_5_expand_conv2d (Conv2D, Conv2D)                       [b:None,h:4,w:4,c:96]     1,536/6,144          24,576                      block_4_add   | -6,144(-100.0%)       -24,576(-100.0%)      
------ ------------------------------------------------------------ ------------------------- ----------------- --------- -------------------------------- --- --------------------- --------------------- ------------------------------- 
46     block_5_expand_BN (ScaleBias, BatchNormalization)            [b:None,h:4,w:4,c:96]     192/768               3,072            block_5_expand_conv2d   | -768(-100.0%)         -3,072(-100.0%)       
------ ------------------------------------------------------------ ------------------------- ----------------- --------- -------------------------------- --- --------------------- --------------------- ------------------------------- 
47     block_5_expand_relu (Nonlinearity, ReLU)                     [b:None,h:4,w:4,c:96]                           1,536                block_5_expand_BN   | +6,528(+100.0%)       +26,208(+1706.2%)     conv2d_of32[17]                 
------ ------------------------------------------------------------ ------------------------- ----------------- --------- -------------------------------- --- --------------------- --------------------- ------------------------------- 
48     block_5_depthwise_conv2d (Conv2D, DepthwiseConv2D)           [b:None,h:4,w:4,c:96]     864/3,456            13,824              block_5_expand_relu   | -3,456(-100.0%)       -13,824(-100.0%)      
------ ------------------------------------------------------------ ------------------------- ----------------- --------- -------------------------------- --- --------------------- --------------------- ------------------------------- 
49     block_5_depthwise_BN (ScaleBias, BatchNormalization)         [b:None,h:4,w:4,c:96]     192/768               3,072         block_5_depthwise_conv2d   | -768(-100.0%)         -3,072(-100.0%)       
------ ------------------------------------------------------------ ------------------------- ----------------- --------- -------------------------------- --- --------------------- --------------------- ------------------------------- 
50     block_5_depthwise_relu (Nonlinearity, ReLU)                  [b:None,h:4,w:4,c:96]                           1,536             block_5_depthwise_BN   | +3,840(+100.0%)       +15,456(+1006.2%)     conv2d_of32[18]                 
------ ------------------------------------------------------------ ------------------------- ----------------- --------- -------------------------------- --- --------------------- --------------------- ------------------------------- 
51     block_5_project_conv2d (Conv2D, Conv2D)                      [b:None,h:4,w:4,c:16]     1,536/6,144          24,576           block_5_depthwise_relu   | -6,144(-100.0%)       -24,576(-100.0%)      
------ ------------------------------------------------------------ ------------------------- ----------------- --------- -------------------------------- --- --------------------- --------------------- ------------------------------- 
52     block_5_project_BN (ScaleBias, BatchNormalization)           [b:None,h:4,w:4,c:16]     32/128                  512           block_5_project_conv2d   | +6,080(+4750.0%)      +24,080(+4703.1%)     conv2d_of32[19]                 
------ ------------------------------------------------------------ ------------------------- ----------------- --------- -------------------------------- --- --------------------- --------------------- ------------------------------- 
53     block_5_add (Eltwise, Add)                                   [b:None,h:4,w:4,c:16]                             256                      block_4_add   |                                             eltwise_of32[20]                
                                                                                                                                        block_5_project_BN   | 
------ ------------------------------------------------------------ ------------------------- ----------------- --------- -------------------------------- --- --------------------- --------------------- ------------------------------- 
54     block_6_expand_conv2d (Conv2D, Conv2D)                       [b:None,h:4,w:4,c:96]     1,536/6,144          24,576                      block_5_add   | -6,144(-100.0%)       -24,576(-100.0%)      
------ ------------------------------------------------------------ ------------------------- ----------------- --------- -------------------------------- --- --------------------- --------------------- ------------------------------- 
55     block_6_expand_BN (ScaleBias, BatchNormalization)            [b:None,h:4,w:4,c:96]     192/768               3,072            block_6_expand_conv2d   | -768(-100.0%)         -3,072(-100.0%)       
------ ------------------------------------------------------------ ------------------------- ----------------- --------- -------------------------------- --- --------------------- --------------------- ------------------------------- 
56     block_6_expand_relu (Nonlinearity, ReLU)                     [b:None,h:4,w:4,c:96]                           1,536                block_6_expand_BN   | +6,528(+100.0%)       +26,208(+1706.2%)     conv2d_of32[21]                 
------ ------------------------------------------------------------ ------------------------- ----------------- --------- -------------------------------- --- --------------------- --------------------- ------------------------------- 
57     block_6_pad (Pad, ZeroPadding2D)                             [b:None,h:5,w:5,c:96]                                              block_6_expand_relu   |                                             
------ ------------------------------------------------------------ ------------------------- ----------------- --------- -------------------------------- --- --------------------- --------------------- ------------------------------- 
58     block_6_depthwise_conv2d (Conv2D, DepthwiseConv2D)           [b:None,h:2,w:2,c:96]     864/3,456             3,456                      block_6_pad   | -3,456(-100.0%)       -3,456(-100.0%)       
------ ------------------------------------------------------------ ------------------------- ----------------- --------- -------------------------------- --- --------------------- --------------------- ------------------------------- 
59     block_6_depthwise_BN (ScaleBias, BatchNormalization)         [b:None,h:2,w:2,c:96]     192/768                 768         block_6_depthwise_conv2d   | -768(-100.0%)         -768(-100.0%)         
------ ------------------------------------------------------------ ------------------------- ----------------- --------- -------------------------------- --- --------------------- --------------------- ------------------------------- 
60     block_6_depthwise_relu (Nonlinearity, ReLU)                  [b:None,h:2,w:2,c:96]                             384             block_6_depthwise_BN   | +3,840(+100.0%)       +3,936(+1025.0%)      conv2d_of32[22]                 
------ ------------------------------------------------------------ ------------------------- ----------------- --------- -------------------------------- --- --------------------- --------------------- ------------------------------- 
61     block_6_project_conv2d (Conv2D, Conv2D)                      [b:None,h:2,w:2,c:24]     2,304/9,216           9,216           block_6_depthwise_relu   | -9,216(-100.0%)       -9,216(-100.0%)       
------ ------------------------------------------------------------ ------------------------- ----------------- --------- -------------------------------- --- --------------------- --------------------- ------------------------------- 
62     block_6_project_BN (ScaleBias, BatchNormalization)           [b:None,h:2,w:2,c:24]     48/192                  192           block_6_project_conv2d   | +9,120(+4750.0%)      +9,048(+4712.5%)      conv2d_of32[23]                 
------ ------------------------------------------------------------ ------------------------- ----------------- --------- -------------------------------- --- --------------------- --------------------- ------------------------------- 
63     block_7_expand_conv2d (Conv2D, Conv2D)                       [b:None,h:2,w:2,c:144]    3,456/13,824         13,824               block_6_project_BN   | -13,824(-100.0%)      -13,824(-100.0%)      
------ ------------------------------------------------------------ ------------------------- ----------------- --------- -------------------------------- --- --------------------- --------------------- ------------------------------- 
64     block_7_expand_BN (ScaleBias, BatchNormalization)            [b:None,h:2,w:2,c:144]    288/1,152             1,152            block_7_expand_conv2d   | -1,152(-100.0%)       -1,152(-100.0%)       
------ ------------------------------------------------------------ ------------------------- ----------------- --------- -------------------------------- --- --------------------- --------------------- ------------------------------- 
65     block_7_expand_relu (Nonlinearity, ReLU)                     [b:None,h:2,w:2,c:144]                            576                block_7_expand_BN   | +14,400(+100.0%)      +14,544(+2525.0%)     conv2d_of32[24]                 
------ ------------------------------------------------------------ ------------------------- ----------------- --------- -------------------------------- --- --------------------- --------------------- ------------------------------- 
66     block_7_depthwise_conv2d (Conv2D, DepthwiseConv2D)           [b:None,h:2,w:2,c:144]    1,296/5,184           5,184              block_7_expand_relu   | -5,184(-100.0%)       -5,184(-100.0%)       
------ ------------------------------------------------------------ ------------------------- ----------------- --------- -------------------------------- --- --------------------- --------------------- ------------------------------- 
67     block_7_depthwise_BN (ScaleBias, BatchNormalization)         [b:None,h:2,w:2,c:144]    288/1,152             1,152         block_7_depthwise_conv2d   | -1,152(-100.0%)       -1,152(-100.0%)       
------ ------------------------------------------------------------ ------------------------- ----------------- --------- -------------------------------- --- --------------------- --------------------- ------------------------------- 
68     block_7_depthwise_relu (Nonlinearity, ReLU)                  [b:None,h:2,w:2,c:144]                            576             block_7_depthwise_BN   | +5,760(+100.0%)       +5,904(+1025.0%)      conv2d_of32[25]                 
------ ------------------------------------------------------------ ------------------------- ----------------- --------- -------------------------------- --- --------------------- --------------------- ------------------------------- 
69     block_7_project_conv2d (Conv2D, Conv2D)                      [b:None,h:2,w:2,c:24]     3,456/13,824         13,824           block_7_depthwise_relu   | -13,824(-100.0%)      -13,824(-100.0%)      
------ ------------------------------------------------------------ ------------------------- ----------------- --------- -------------------------------- --- --------------------- --------------------- ------------------------------- 
70     block_7_project_BN (ScaleBias, BatchNormalization)           [b:None,h:2,w:2,c:24]     48/192                  192           block_7_project_conv2d   | +13,728(+7150.0%)     +13,656(+7112.5%)     conv2d_of32[26]                 
------ ------------------------------------------------------------ ------------------------- ----------------- --------- -------------------------------- --- --------------------- --------------------- ------------------------------- 
71     block_7_add (Eltwise, Add)                                   [b:None,h:2,w:2,c:24]                              96               block_6_project_BN   |                                             eltwise_of32[27]                
                                                                                                                                        block_7_project_BN   | 
------ ------------------------------------------------------------ ------------------------- ----------------- --------- -------------------------------- --- --------------------- --------------------- ------------------------------- 
72     block_8_expand_conv2d (Conv2D, Conv2D)                       [b:None,h:2,w:2,c:144]    3,456/13,824         13,824                      block_7_add   | -13,824(-100.0%)      -13,824(-100.0%)      
------ ------------------------------------------------------------ ------------------------- ----------------- --------- -------------------------------- --- --------------------- --------------------- ------------------------------- 
73     block_8_expand_BN (ScaleBias, BatchNormalization)            [b:None,h:2,w:2,c:144]    288/1,152             1,152            block_8_expand_conv2d   | -1,152(-100.0%)       -1,152(-100.0%)       
------ ------------------------------------------------------------ ------------------------- ----------------- --------- -------------------------------- --- --------------------- --------------------- ------------------------------- 
74     block_8_expand_relu (Nonlinearity, ReLU)                     [b:None,h:2,w:2,c:144]                            576                block_8_expand_BN   | +14,400(+100.0%)      +14,544(+2525.0%)     conv2d_of32[28]                 
------ ------------------------------------------------------------ ------------------------- ----------------- --------- -------------------------------- --- --------------------- --------------------- ------------------------------- 
75     block_8_depthwise_conv2d (Conv2D, DepthwiseConv2D)           [b:None,h:2,w:2,c:144]    1,296/5,184           5,184              block_8_expand_relu   | -5,184(-100.0%)       -5,184(-100.0%)       
------ ------------------------------------------------------------ ------------------------- ----------------- --------- -------------------------------- --- --------------------- --------------------- ------------------------------- 
76     block_8_depthwise_BN (ScaleBias, BatchNormalization)         [b:None,h:2,w:2,c:144]    288/1,152             1,152         block_8_depthwise_conv2d   | -1,152(-100.0%)       -1,152(-100.0%)       
------ ------------------------------------------------------------ ------------------------- ----------------- --------- -------------------------------- --- --------------------- --------------------- ------------------------------- 
77     block_8_depthwise_relu (Nonlinearity, ReLU)                  [b:None,h:2,w:2,c:144]                            576             block_8_depthwise_BN   | +5,760(+100.0%)       +5,904(+1025.0%)      conv2d_of32[29]                 
------ ------------------------------------------------------------ ------------------------- ----------------- --------- -------------------------------- --- --------------------- --------------------- ------------------------------- 
78     block_8_project_conv2d (Conv2D, Conv2D)                      [b:None,h:2,w:2,c:24]     3,456/13,824         13,824           block_8_depthwise_relu   | -13,824(-100.0%)      -13,824(-100.0%)      
------ ------------------------------------------------------------ ------------------------- ----------------- --------- -------------------------------- --- --------------------- --------------------- ------------------------------- 
79     block_8_project_BN (ScaleBias, BatchNormalization)           [b:None,h:2,w:2,c:24]     48/192                  192           block_8_project_conv2d   | +13,728(+7150.0%)     +13,656(+7112.5%)     conv2d_of32[30]                 
------ ------------------------------------------------------------ ------------------------- ----------------- --------- -------------------------------- --- --------------------- --------------------- ------------------------------- 
80     block_8_add (Eltwise, Add)                                   [b:None,h:2,w:2,c:24]                              96                      block_7_add   |                                             eltwise_of32[31]                
                                                                                                                                        block_8_project_BN   | 
------ ------------------------------------------------------------ ------------------------- ----------------- --------- -------------------------------- --- --------------------- --------------------- ------------------------------- 
81     block_9_expand_conv2d (Conv2D, Conv2D)                       [b:None,h:2,w:2,c:144]    3,456/13,824         13,824                      block_8_add   | -13,824(-100.0%)      -13,824(-100.0%)      
------ ------------------------------------------------------------ ------------------------- ----------------- --------- -------------------------------- --- --------------------- --------------------- ------------------------------- 
82     block_9_expand_BN (ScaleBias, BatchNormalization)            [b:None,h:2,w:2,c:144]    288/1,152             1,152            block_9_expand_conv2d   | -1,152(-100.0%)       -1,152(-100.0%)       
------ ------------------------------------------------------------ ------------------------- ----------------- --------- -------------------------------- --- --------------------- --------------------- ------------------------------- 
83     block_9_expand_relu (Nonlinearity, ReLU)                     [b:None,h:2,w:2,c:144]                            576                block_9_expand_BN   | +14,400(+100.0%)      +14,544(+2525.0%)     conv2d_of32[32]                 
------ ------------------------------------------------------------ ------------------------- ----------------- --------- -------------------------------- --- --------------------- --------------------- ------------------------------- 
84     block_9_depthwise_conv2d (Conv2D, DepthwiseConv2D)           [b:None,h:2,w:2,c:144]    1,296/5,184           5,184              block_9_expand_relu   | -5,184(-100.0%)       -5,184(-100.0%)       
------ ------------------------------------------------------------ ------------------------- ----------------- --------- -------------------------------- --- --------------------- --------------------- ------------------------------- 
85     block_9_depthwise_BN (ScaleBias, BatchNormalization)         [b:None,h:2,w:2,c:144]    288/1,152             1,152         block_9_depthwise_conv2d   | -1,152(-100.0%)       -1,152(-100.0%)       
------ ------------------------------------------------------------ ------------------------- ----------------- --------- -------------------------------- --- --------------------- --------------------- ------------------------------- 
86     block_9_depthwise_relu (Nonlinearity, ReLU)                  [b:None,h:2,w:2,c:144]                            576             block_9_depthwise_BN   | +5,760(+100.0%)       +5,904(+1025.0%)      conv2d_of32[33]                 
------ ------------------------------------------------------------ ------------------------- ----------------- --------- -------------------------------- --- --------------------- --------------------- ------------------------------- 
87     block_9_project_conv2d (Conv2D, Conv2D)                      [b:None,h:2,w:2,c:24]     3,456/13,824         13,824           block_9_depthwise_relu   | -13,824(-100.0%)      -13,824(-100.0%)      
------ ------------------------------------------------------------ ------------------------- ----------------- --------- -------------------------------- --- --------------------- --------------------- ------------------------------- 
88     block_9_project_BN (ScaleBias, BatchNormalization)           [b:None,h:2,w:2,c:24]     48/192                  192           block_9_project_conv2d   | +13,728(+7150.0%)     +13,656(+7112.5%)     conv2d_of32[34]                 
------ ------------------------------------------------------------ ------------------------- ----------------- --------- -------------------------------- --- --------------------- --------------------- ------------------------------- 
89     block_9_add (Eltwise, Add)                                   [b:None,h:2,w:2,c:24]                              96                      block_8_add   |                                             eltwise_of32[35]                
                                                                                                                                        block_9_project_BN   | 
------ ------------------------------------------------------------ ------------------------- ----------------- --------- -------------------------------- --- --------------------- --------------------- ------------------------------- 
90     block_10_expand_conv2d (Conv2D, Conv2D)                      [b:None,h:2,w:2,c:144]    3,456/13,824         13,824                      block_9_add   | -13,824(-100.0%)      -13,824(-100.0%)      
------ ------------------------------------------------------------ ------------------------- ----------------- --------- -------------------------------- --- --------------------- --------------------- ------------------------------- 
91     block_10_expand_BN (ScaleBias, BatchNormalization)           [b:None,h:2,w:2,c:144]    288/1,152             1,152           block_10_expand_conv2d   | -1,152(-100.0%)       -1,152(-100.0%)       
------ ------------------------------------------------------------ ------------------------- ----------------- --------- -------------------------------- --- --------------------- --------------------- ------------------------------- 
92     block_10_expand_relu (Nonlinearity, ReLU)                    [b:None,h:2,w:2,c:144]                            576               block_10_expand_BN   | +14,400(+100.0%)      +14,544(+2525.0%)     conv2d_of32[36]                 
------ ------------------------------------------------------------ ------------------------- ----------------- --------- -------------------------------- --- --------------------- --------------------- ------------------------------- 
93     block_10_depthwise_conv2d (Conv2D, DepthwiseConv2D)          [b:None,h:2,w:2,c:144]    1,296/5,184           5,184             block_10_expand_relu   | -5,184(-100.0%)       -5,184(-100.0%)       
------ ------------------------------------------------------------ ------------------------- ----------------- --------- -------------------------------- --- --------------------- --------------------- ------------------------------- 
94     block_10_depthwise_BN (ScaleBias, BatchNormalization)        [b:None,h:2,w:2,c:144]    288/1,152             1,152        block_10_depthwise_conv2d   | -1,152(-100.0%)       -1,152(-100.0%)       
------ ------------------------------------------------------------ ------------------------- ----------------- --------- -------------------------------- --- --------------------- --------------------- ------------------------------- 
95     block_10_depthwise_relu (Nonlinearity, ReLU)                 [b:None,h:2,w:2,c:144]                            576            block_10_depthwise_BN   | +5,760(+100.0%)       +5,904(+1025.0%)      conv2d_of32[37]                 
------ ------------------------------------------------------------ ------------------------- ----------------- --------- -------------------------------- --- --------------------- --------------------- ------------------------------- 
96     block_10_project_conv2d (Conv2D, Conv2D)                     [b:None,h:2,w:2,c:32]     4,608/18,432         18,432          block_10_depthwise_relu   | -18,432(-100.0%)      -18,432(-100.0%)      
------ ------------------------------------------------------------ ------------------------- ----------------- --------- -------------------------------- --- --------------------- --------------------- ------------------------------- 
97     block_10_project_BN (ScaleBias, BatchNormalization)          [b:None,h:2,w:2,c:32]     64/256                  256          block_10_project_conv2d   | +18,304(+7150.0%)     +18,208(+7112.5%)     conv2d_of32[38]                 
------ ------------------------------------------------------------ ------------------------- ----------------- --------- -------------------------------- --- --------------------- --------------------- ------------------------------- 
98     block_11_expand_conv2d (Conv2D, Conv2D)                      [b:None,h:2,w:2,c:192]    6,144/24,576         24,576              block_10_project_BN   | -24,576(-100.0%)      -24,576(-100.0%)      
------ ------------------------------------------------------------ ------------------------- ----------------- --------- -------------------------------- --- --------------------- --------------------- ------------------------------- 
99     block_11_expand_BN (ScaleBias, BatchNormalization)           [b:None,h:2,w:2,c:192]    384/1,536             1,536           block_11_expand_conv2d   | -1,536(-100.0%)       -1,536(-100.0%)       
------ ------------------------------------------------------------ ------------------------- ----------------- --------- -------------------------------- --- --------------------- --------------------- ------------------------------- 
100    block_11_expand_relu (Nonlinearity, ReLU)                    [b:None,h:2,w:2,c:192]                            768               block_11_expand_BN   | +25,344(+100.0%)      +25,536(+3325.0%)     conv2d_of32[39]                 
------ ------------------------------------------------------------ ------------------------- ----------------- --------- -------------------------------- --- --------------------- --------------------- ------------------------------- 
101    block_11_depthwise_conv2d (Conv2D, DepthwiseConv2D)          [b:None,h:2,w:2,c:192]    1,728/6,912           6,912             block_11_expand_relu   | -6,912(-100.0%)       -6,912(-100.0%)       
------ ------------------------------------------------------------ ------------------------- ----------------- --------- -------------------------------- --- --------------------- --------------------- ------------------------------- 
102    block_11_depthwise_BN (ScaleBias, BatchNormalization)        [b:None,h:2,w:2,c:192]    384/1,536             1,536        block_11_depthwise_conv2d   | -1,536(-100.0%)       -1,536(-100.0%)       
------ ------------------------------------------------------------ ------------------------- ----------------- --------- -------------------------------- --- --------------------- --------------------- ------------------------------- 
103    block_11_depthwise_relu (Nonlinearity, ReLU)                 [b:None,h:2,w:2,c:192]                            768            block_11_depthwise_BN   | +7,680(+100.0%)       +7,872(+1025.0%)      conv2d_of32[40]                 
------ ------------------------------------------------------------ ------------------------- ----------------- --------- -------------------------------- --- --------------------- --------------------- ------------------------------- 
104    block_11_project_conv2d (Conv2D, Conv2D)                     [b:None,h:2,w:2,c:32]     6,144/24,576         24,576          block_11_depthwise_relu   | -24,576(-100.0%)      -24,576(-100.0%)      
------ ------------------------------------------------------------ ------------------------- ----------------- --------- -------------------------------- --- --------------------- --------------------- ------------------------------- 
105    block_11_project_BN (ScaleBias, BatchNormalization)          [b:None,h:2,w:2,c:32]     64/256                  256          block_11_project_conv2d   | +24,448(+9550.0%)     +24,352(+9512.5%)     conv2d_of32[41]                 
------ ------------------------------------------------------------ ------------------------- ----------------- --------- -------------------------------- --- --------------------- --------------------- ------------------------------- 
106    block_11_add (Eltwise, Add)                                  [b:None,h:2,w:2,c:32]                             128              block_10_project_BN   |                                             eltwise_of32[42]                
                                                                                                                                       block_11_project_BN   | 
------ ------------------------------------------------------------ ------------------------- ----------------- --------- -------------------------------- --- --------------------- --------------------- ------------------------------- 
107    block_12_expand_conv2d (Conv2D, Conv2D)                      [b:None,h:2,w:2,c:192]    6,144/24,576         24,576                     block_11_add   | -24,576(-100.0%)      -24,576(-100.0%)      
------ ------------------------------------------------------------ ------------------------- ----------------- --------- -------------------------------- --- --------------------- --------------------- ------------------------------- 
108    block_12_expand_BN (ScaleBias, BatchNormalization)           [b:None,h:2,w:2,c:192]    384/1,536             1,536           block_12_expand_conv2d   | -1,536(-100.0%)       -1,536(-100.0%)       
------ ------------------------------------------------------------ ------------------------- ----------------- --------- -------------------------------- --- --------------------- --------------------- ------------------------------- 
109    block_12_expand_relu (Nonlinearity, ReLU)                    [b:None,h:2,w:2,c:192]                            768               block_12_expand_BN   | +25,344(+100.0%)      +25,536(+3325.0%)     conv2d_of32[43]                 
------ ------------------------------------------------------------ ------------------------- ----------------- --------- -------------------------------- --- --------------------- --------------------- ------------------------------- 
110    block_12_depthwise_conv2d (Conv2D, DepthwiseConv2D)          [b:None,h:2,w:2,c:192]    1,728/6,912           6,912             block_12_expand_relu   | -6,912(-100.0%)       -6,912(-100.0%)       
------ ------------------------------------------------------------ ------------------------- ----------------- --------- -------------------------------- --- --------------------- --------------------- ------------------------------- 
111    block_12_depthwise_BN (ScaleBias, BatchNormalization)        [b:None,h:2,w:2,c:192]    384/1,536             1,536        block_12_depthwise_conv2d   | -1,536(-100.0%)       -1,536(-100.0%)       
------ ------------------------------------------------------------ ------------------------- ----------------- --------- -------------------------------- --- --------------------- --------------------- ------------------------------- 
112    block_12_depthwise_relu (Nonlinearity, ReLU)                 [b:None,h:2,w:2,c:192]                            768            block_12_depthwise_BN   | +7,680(+100.0%)       +7,872(+1025.0%)      conv2d_of32[44]                 
------ ------------------------------------------------------------ ------------------------- ----------------- --------- -------------------------------- --- --------------------- --------------------- ------------------------------- 
113    block_12_project_conv2d (Conv2D, Conv2D)                     [b:None,h:2,w:2,c:32]     6,144/24,576         24,576          block_12_depthwise_relu   | -24,576(-100.0%)      -24,576(-100.0%)      
------ ------------------------------------------------------------ ------------------------- ----------------- --------- -------------------------------- --- --------------------- --------------------- ------------------------------- 
114    block_12_project_BN (ScaleBias, BatchNormalization)          [b:None,h:2,w:2,c:32]     64/256                  256          block_12_project_conv2d   | +24,448(+9550.0%)     +24,352(+9512.5%)     conv2d_of32[45]                 
------ ------------------------------------------------------------ ------------------------- ----------------- --------- -------------------------------- --- --------------------- --------------------- ------------------------------- 
115    block_12_add (Eltwise, Add)                                  [b:None,h:2,w:2,c:32]                             128                     block_11_add   |                                             eltwise_of32[46]                
                                                                                                                                       block_12_project_BN   | 
------ ------------------------------------------------------------ ------------------------- ----------------- --------- -------------------------------- --- --------------------- --------------------- ------------------------------- 
116    block_13_expand_conv2d (Conv2D, Conv2D)                      [b:None,h:2,w:2,c:192]    6,144/24,576         24,576                     block_12_add   | -24,576(-100.0%)      -24,576(-100.0%)      
------ ------------------------------------------------------------ ------------------------- ----------------- --------- -------------------------------- --- --------------------- --------------------- ------------------------------- 
117    block_13_expand_BN (ScaleBias, BatchNormalization)           [b:None,h:2,w:2,c:192]    384/1,536             1,536           block_13_expand_conv2d   | -1,536(-100.0%)       -1,536(-100.0%)       
------ ------------------------------------------------------------ ------------------------- ----------------- --------- -------------------------------- --- --------------------- --------------------- ------------------------------- 
118    block_13_expand_relu (Nonlinearity, ReLU)                    [b:None,h:2,w:2,c:192]                            768               block_13_expand_BN   | +25,344(+100.0%)      +25,536(+3325.0%)     conv2d_of32[47]                 
------ ------------------------------------------------------------ ------------------------- ----------------- --------- -------------------------------- --- --------------------- --------------------- ------------------------------- 
119    block_13_pad (Pad, ZeroPadding2D)                            [b:None,h:3,w:3,c:192]                                            block_13_expand_relu   |                                             
------ ------------------------------------------------------------ ------------------------- ----------------- --------- -------------------------------- --- --------------------- --------------------- ------------------------------- 
120    block_13_depthwise_conv2d (Conv2D, DepthwiseConv2D)          [b:None,h:1,w:1,c:192]    1,728/6,912           1,728                     block_13_pad   | -6,912(-100.0%)       -1,728(-100.0%)       
------ ------------------------------------------------------------ ------------------------- ----------------- --------- -------------------------------- --- --------------------- --------------------- ------------------------------- 
121    block_13_depthwise_BN (ScaleBias, BatchNormalization)        [b:None,h:1,w:1,c:192]    384/1,536               384        block_13_depthwise_conv2d   | -1,536(-100.0%)       -384(-100.0%)         
------ ------------------------------------------------------------ ------------------------- ----------------- --------- -------------------------------- --- --------------------- --------------------- ------------------------------- 
122    block_13_depthwise_relu (Nonlinearity, ReLU)                 [b:None,h:1,w:1,c:192]                            192            block_13_depthwise_BN   | +7,680(+100.0%)       +2,112(+1100.0%)      conv2d_of32[48]                 
------ ------------------------------------------------------------ ------------------------- ----------------- --------- -------------------------------- --- --------------------- --------------------- ------------------------------- 
123    block_13_project_conv2d (Conv2D, Conv2D)                     [b:None,h:1,w:1,c:56]     10,752/43,008        10,752          block_13_depthwise_relu   | -43,008(-100.0%)      -10,752(-100.0%)      
------ ------------------------------------------------------------ ------------------------- ----------------- --------- -------------------------------- --- --------------------- --------------------- ------------------------------- 
124    block_13_project_BN (ScaleBias, BatchNormalization)          [b:None,h:1,w:1,c:56]     112/448                 112          block_13_project_conv2d   | +42,784(+9550.0%)     +10,696(+9550.0%)     conv2d_of32[49]                 
------ ------------------------------------------------------------ ------------------------- ----------------- --------- -------------------------------- --- --------------------- --------------------- ------------------------------- 
125    block_14_expand_conv2d (Conv2D, Conv2D)                      [b:None,h:1,w:1,c:336]    18,816/75,264        18,816              block_13_project_BN   | -75,264(-100.0%)      -18,816(-100.0%)      
------ ------------------------------------------------------------ ------------------------- ----------------- --------- -------------------------------- --- --------------------- --------------------- ------------------------------- 
126    block_14_expand_BN (ScaleBias, BatchNormalization)           [b:None,h:1,w:1,c:336]    672/2,688               672           block_14_expand_conv2d   | -2,688(-100.0%)       -672(-100.0%)         
------ ------------------------------------------------------------ ------------------------- ----------------- --------- -------------------------------- --- --------------------- --------------------- ------------------------------- 
127    block_14_expand_relu (Nonlinearity, ReLU)                    [b:None,h:1,w:1,c:336]                            336               block_14_expand_BN   | +76,608(+100.0%)      +19,488(+5800.0%)     conv2d_of32[50]                 
------ ------------------------------------------------------------ ------------------------- ----------------- --------- -------------------------------- --- --------------------- --------------------- ------------------------------- 
128    block_14_depthwise_conv2d (Conv2D, DepthwiseConv2D)          [b:None,h:1,w:1,c:336]    3,024/12,096          3,024             block_14_expand_relu   | -12,096(-100.0%)      -3,024(-100.0%)       
------ ------------------------------------------------------------ ------------------------- ----------------- --------- -------------------------------- --- --------------------- --------------------- ------------------------------- 
129    block_14_depthwise_BN (ScaleBias, BatchNormalization)        [b:None,h:1,w:1,c:336]    672/2,688               672        block_14_depthwise_conv2d   | -2,688(-100.0%)       -672(-100.0%)         
------ ------------------------------------------------------------ ------------------------- ----------------- --------- -------------------------------- --- --------------------- --------------------- ------------------------------- 
130    block_14_depthwise_relu (Nonlinearity, ReLU)                 [b:None,h:1,w:1,c:336]                            336            block_14_depthwise_BN   | +13,440(+100.0%)      +3,696(+1100.0%)      conv2d_of32[51]                 
------ ------------------------------------------------------------ ------------------------- ----------------- --------- -------------------------------- --- --------------------- --------------------- ------------------------------- 
131    block_14_project_conv2d (Conv2D, Conv2D)                     [b:None,h:1,w:1,c:56]     18,816/75,264        18,816          block_14_depthwise_relu   | -75,264(-100.0%)      -18,816(-100.0%)      
------ ------------------------------------------------------------ ------------------------- ----------------- --------- -------------------------------- --- --------------------- --------------------- ------------------------------- 
132    block_14_project_BN (ScaleBias, BatchNormalization)          [b:None,h:1,w:1,c:56]     112/448                 112          block_14_project_conv2d   | +75,040(+16750.0%)    +18,760(+16750.0%)    conv2d_of32[52]                 
------ ------------------------------------------------------------ ------------------------- ----------------- --------- -------------------------------- --- --------------------- --------------------- ------------------------------- 
133    block_14_add (Eltwise, Add)                                  [b:None,h:1,w:1,c:56]                              56              block_13_project_BN   |                                             eltwise_of32[53]                
                                                                                                                                       block_14_project_BN   | 
------ ------------------------------------------------------------ ------------------------- ----------------- --------- -------------------------------- --- --------------------- --------------------- ------------------------------- 
134    block_15_expand_conv2d (Conv2D, Conv2D)                      [b:None,h:1,w:1,c:336]    18,816/75,264        18,816                     block_14_add   | -75,264(-100.0%)      -18,816(-100.0%)      
------ ------------------------------------------------------------ ------------------------- ----------------- --------- -------------------------------- --- --------------------- --------------------- ------------------------------- 
135    block_15_expand_BN (ScaleBias, BatchNormalization)           [b:None,h:1,w:1,c:336]    672/2,688               672           block_15_expand_conv2d   | -2,688(-100.0%)       -672(-100.0%)         
------ ------------------------------------------------------------ ------------------------- ----------------- --------- -------------------------------- --- --------------------- --------------------- ------------------------------- 
136    block_15_expand_relu (Nonlinearity, ReLU)                    [b:None,h:1,w:1,c:336]                            336               block_15_expand_BN   | +76,608(+100.0%)      +19,488(+5800.0%)     conv2d_of32[54]                 
------ ------------------------------------------------------------ ------------------------- ----------------- --------- -------------------------------- --- --------------------- --------------------- ------------------------------- 
137    block_15_depthwise_conv2d (Conv2D, DepthwiseConv2D)          [b:None,h:1,w:1,c:336]    3,024/12,096          3,024             block_15_expand_relu   | -12,096(-100.0%)      -3,024(-100.0%)       
------ ------------------------------------------------------------ ------------------------- ----------------- --------- -------------------------------- --- --------------------- --------------------- ------------------------------- 
138    block_15_depthwise_BN (ScaleBias, BatchNormalization)        [b:None,h:1,w:1,c:336]    672/2,688               672        block_15_depthwise_conv2d   | -2,688(-100.0%)       -672(-100.0%)         
------ ------------------------------------------------------------ ------------------------- ----------------- --------- -------------------------------- --- --------------------- --------------------- ------------------------------- 
139    block_15_depthwise_relu (Nonlinearity, ReLU)                 [b:None,h:1,w:1,c:336]                            336            block_15_depthwise_BN   | +13,440(+100.0%)      +3,696(+1100.0%)      conv2d_of32[55]                 
------ ------------------------------------------------------------ ------------------------- ----------------- --------- -------------------------------- --- --------------------- --------------------- ------------------------------- 
140    block_15_project_conv2d (Conv2D, Conv2D)                     [b:None,h:1,w:1,c:56]     18,816/75,264        18,816          block_15_depthwise_relu   | -75,264(-100.0%)      -18,816(-100.0%)      
------ ------------------------------------------------------------ ------------------------- ----------------- --------- -------------------------------- --- --------------------- --------------------- ------------------------------- 
141    block_15_project_BN (ScaleBias, BatchNormalization)          [b:None,h:1,w:1,c:56]     112/448                 112          block_15_project_conv2d   | +75,040(+16750.0%)    +18,760(+16750.0%)    conv2d_of32[56]                 
------ ------------------------------------------------------------ ------------------------- ----------------- --------- -------------------------------- --- --------------------- --------------------- ------------------------------- 
142    block_15_add (Eltwise, Add)                                  [b:None,h:1,w:1,c:56]                              56                     block_14_add   |                                             eltwise_of32[57]                
                                                                                                                                       block_15_project_BN   | 
------ ------------------------------------------------------------ ------------------------- ----------------- --------- -------------------------------- --- --------------------- --------------------- ------------------------------- 
143    block_16_expand_conv2d (Conv2D, Conv2D)                      [b:None,h:1,w:1,c:336]    18,816/75,264        18,816                     block_15_add   | -75,264(-100.0%)      -18,816(-100.0%)      
------ ------------------------------------------------------------ ------------------------- ----------------- --------- -------------------------------- --- --------------------- --------------------- ------------------------------- 
144    block_16_expand_BN (ScaleBias, BatchNormalization)           [b:None,h:1,w:1,c:336]    672/2,688               672           block_16_expand_conv2d   | -2,688(-100.0%)       -672(-100.0%)         
------ ------------------------------------------------------------ ------------------------- ----------------- --------- -------------------------------- --- --------------------- --------------------- ------------------------------- 
145    block_16_expand_relu (Nonlinearity, ReLU)                    [b:None,h:1,w:1,c:336]                            336               block_16_expand_BN   | +76,608(+100.0%)      +19,488(+5800.0%)     conv2d_of32[58]                 
------ ------------------------------------------------------------ ------------------------- ----------------- --------- -------------------------------- --- --------------------- --------------------- ------------------------------- 
146    block_16_depthwise_conv2d (Conv2D, DepthwiseConv2D)          [b:None,h:1,w:1,c:336]    3,024/12,096          3,024             block_16_expand_relu   | -12,096(-100.0%)      -3,024(-100.0%)       
------ ------------------------------------------------------------ ------------------------- ----------------- --------- -------------------------------- --- --------------------- --------------------- ------------------------------- 
147    block_16_depthwise_BN (ScaleBias, BatchNormalization)        [b:None,h:1,w:1,c:336]    672/2,688               672        block_16_depthwise_conv2d   | -2,688(-100.0%)       -672(-100.0%)         
------ ------------------------------------------------------------ ------------------------- ----------------- --------- -------------------------------- --- --------------------- --------------------- ------------------------------- 
148    block_16_depthwise_relu (Nonlinearity, ReLU)                 [b:None,h:1,w:1,c:336]                            336            block_16_depthwise_BN   | +13,440(+100.0%)      +3,696(+1100.0%)      conv2d_of32[59]                 
------ ------------------------------------------------------------ ------------------------- ----------------- --------- -------------------------------- --- --------------------- --------------------- ------------------------------- 
149    block_16_project_conv2d (Conv2D, Conv2D)                     [b:None,h:1,w:1,c:112]    37,632/150,528       37,632          block_16_depthwise_relu   | -150,528(-100.0%)     -37,632(-100.0%)      
------ ------------------------------------------------------------ ------------------------- ----------------- --------- -------------------------------- --- --------------------- --------------------- ------------------------------- 
150    block_16_project_BN (ScaleBias, BatchNormalization)          [b:None,h:1,w:1,c:112]    224/896                 224          block_16_project_conv2d   | +150,080(+16750.0%)   +37,520(+16750.0%)    conv2d_of32[60]                 
------ ------------------------------------------------------------ ------------------------- ----------------- --------- -------------------------------- --- --------------------- --------------------- ------------------------------- 
151    Conv_1_conv2d (Conv2D, Conv2D)                               [b:None,h:1,w:1,c:1280]   143,360/573,440     143,360              block_16_project_BN   | -573,440(-100.0%)     -143,360(-100.0%)     
------ ------------------------------------------------------------ ------------------------- ----------------- --------- -------------------------------- --- --------------------- --------------------- ------------------------------- 
152    Conv_1_bn (ScaleBias, BatchNormalization)                    [b:None,h:1,w:1,c:1280]   2,560/10,240          2,560                    Conv_1_conv2d   | -10,240(-100.0%)      -2,560(-100.0%)       
------ ------------------------------------------------------------ ------------------------- ----------------- --------- -------------------------------- --- --------------------- --------------------- ------------------------------- 
153    out_relu (Nonlinearity, ReLU)                                [b:None,h:1,w:1,c:1280]                         1,280                        Conv_1_bn   | +578,560(+100.0%)     +145,920(+11400.0%)   conv2d_of32[61]                 
------ ------------------------------------------------------------ ------------------------- ----------------- --------- -------------------------------- --- --------------------- --------------------- ------------------------------- 
1      reshape (Reshape, Reshape)                                   [b:1,h:1,c:1280]                                                              out_relu   |                                             
------ ------------------------------------------------------------ ------------------------- ----------------- --------- -------------------------------- --- --------------------- --------------------- ------------------------------- 
2      dense_dense (Dense, Dense)                                   [b:1,h:1,c:8]             10,248/40,992        10,248                          reshape   | -40,992(-100.0%)      -10,248(-100.0%)      
       dense (Nonlinearity, Dense)                                  [b:1,h:1,c:8]                                       8                      dense_dense   |                       -8(-100.0%)           
------ ------------------------------------------------------------ ------------------------- ----------------- --------- -------------------------------- --- --------------------- --------------------- ------------------------------- 
4      flatten (Reshape, Flatten)                                   [b:None,c:8]                                                                     dense   |                                             
------ ------------------------------------------------------------ ------------------------- ----------------- --------- -------------------------------- --- --------------------- --------------------- ------------------------------- 
5      dense_1_dense (Dense, Dense)                                 [b:None,c:10]             90/360                   90                          flatten   | -360(-100.0%)         -90(-100.0%)          
       dense_1 (Nonlinearity, Dense)                                [b:None,c:10]                                     150                    dense_1_dense   |                       -150(-100.0%)         
------ ------------------------------------------------------------ ------------------------- ----------------- --------- -------------------------------- --- --------------------- --------------------- ------------------------------- 
model/c-model: macc=1,366,352/1,310,080 -56,272(-4.1%) weights=1,625,864/1,597,704 -28,160(-1.7%) activations=--/56,512 io=--/0



Generated C-graph summary
------------------------------------------------------------------------------------------------------------------------
model name            : cifar_32x32_v2_035
c-name                : network
c-node #              : 66
c-array #             : 175
activations size      : 56512 (1 segment)
weights size          : 1597704 (1 segment)
macc                  : 1310080
inputs                : ['input_0_output']
outputs               : ['dense_1_output']

C-Arrays (175)
------ ---------------------------------------- --------------- ------------------------- ------------- --------- --------- 
c_id   name (*_array)                           item/size       domain/mem-pool           c-type        fmt       comment   
------ ---------------------------------------- --------------- ------------------------- ------------- --------- --------- 
0      block_2_depthwise_conv2d_bias            48/192          weights/weights           const float   float32             
1      block_2_project_conv2d_weights           384/1536        weights/weights           const float   float32             
2      block_2_project_conv2d_bias              8/32            weights/weights           const float   float32             
3      block_3_expand_conv2d_weights            384/1536        weights/weights           const float   float32             
4      block_3_expand_conv2d_bias               48/192          weights/weights           const float   float32             
5      block_3_depthwise_conv2d_weights         432/1728        weights/weights           const float   float32             
6      block_3_depthwise_conv2d_bias            48/192          weights/weights           const float   float32             
7      block_3_project_conv2d_weights           768/3072        weights/weights           const float   float32             
8      block_3_project_conv2d_bias              16/64           weights/weights           const float   float32             
9      block_4_expand_conv2d_weights            1536/6144       weights/weights           const float   float32             
10     block_4_expand_conv2d_bias               96/384          weights/weights           const float   float32             
11     block_4_depthwise_conv2d_weights         864/3456        weights/weights           const float   float32             
12     block_4_depthwise_conv2d_bias            96/384          weights/weights           const float   float32             
13     block_4_project_conv2d_weights           1536/6144       weights/weights           const float   float32             
14     block_4_project_conv2d_bias              16/64           weights/weights           const float   float32             
15     block_5_expand_conv2d_weights            1536/6144       weights/weights           const float   float32             
16     block_5_expand_conv2d_bias               96/384          weights/weights           const float   float32             
17     block_5_depthwise_conv2d_weights         864/3456        weights/weights           const float   float32             
18     block_5_depthwise_conv2d_bias            96/384          weights/weights           const float   float32             
19     block_5_project_conv2d_weights           1536/6144       weights/weights           const float   float32             
20     block_5_project_conv2d_bias              16/64           weights/weights           const float   float32             
21     block_6_expand_conv2d_weights            1536/6144       weights/weights           const float   float32             
22     block_6_expand_conv2d_bias               96/384          weights/weights           const float   float32             
23     block_6_depthwise_conv2d_weights         864/3456        weights/weights           const float   float32             
24     block_6_depthwise_conv2d_bias            96/384          weights/weights           const float   float32             
25     block_6_project_conv2d_weights           2304/9216       weights/weights           const float   float32             
26     block_6_project_conv2d_bias              24/96           weights/weights           const float   float32             
27     block_7_expand_conv2d_weights            3456/13824      weights/weights           const float   float32             
28     block_7_expand_conv2d_bias               144/576         weights/weights           const float   float32             
29     block_7_depthwise_conv2d_weights         1296/5184       weights/weights           const float   float32             
30     block_7_depthwise_conv2d_bias            144/576         weights/weights           const float   float32             
31     block_7_project_conv2d_weights           3456/13824      weights/weights           const float   float32             
32     block_7_project_conv2d_bias              24/96           weights/weights           const float   float32             
33     block_8_expand_conv2d_weights            3456/13824      weights/weights           const float   float32             
34     block_8_expand_conv2d_bias               144/576         weights/weights           const float   float32             
35     block_8_depthwise_conv2d_weights         1296/5184       weights/weights           const float   float32             
36     block_8_depthwise_conv2d_bias            144/576         weights/weights           const float   float32             
37     block_8_project_conv2d_weights           3456/13824      weights/weights           const float   float32             
38     block_8_project_conv2d_bias              24/96           weights/weights           const float   float32             
39     block_9_expand_conv2d_weights            3456/13824      weights/weights           const float   float32             
40     input_0_output                           3072/12288      activations/**default**   float         float32   /input    
41     block_9_expand_conv2d_bias               144/576         weights/weights           const float   float32             
42     Conv1_conv2d_output                      4096/16384      activations/**default**   float         float32             
43     expanded_conv_depthwise_conv2d_output    4096/16384      activations/**default**   float         float32             
44     block_9_depthwise_conv2d_weights         1296/5184       weights/weights           const float   float32             
45     expanded_conv_project_conv2d_output      2048/8192       activations/**default**   float         float32             
46     block_1_expand_conv2d_output             12288/49152     activations/**default**   float         float32             
47     block_9_depthwise_conv2d_bias            144/576         weights/weights           const float   float32             
48     block_1_depthwise_conv2d_output          3072/12288      activations/**default**   float         float32             
49     block_1_project_conv2d_output            512/2048        activations/**default**   float         float32             
50     block_9_project_conv2d_weights           3456/13824      weights/weights           const float   float32             
51     block_2_expand_conv2d_output             3072/12288      activations/**default**   float         float32             
52     block_2_depthwise_conv2d_output          3072/12288      activations/**default**   float         float32             
53     block_9_project_conv2d_bias              24/96           weights/weights           const float   float32             
54     block_2_project_conv2d_output            512/2048        activations/**default**   float         float32             
55     block_2_add_output                       512/2048        activations/**default**   float         float32             
56     block_10_expand_conv2d_weights           3456/13824      weights/weights           const float   float32             
57     block_3_expand_conv2d_output             3072/12288      activations/**default**   float         float32             
58     block_3_depthwise_conv2d_output          768/3072        activations/**default**   float         float32             
59     block_10_expand_conv2d_bias              144/576         weights/weights           const float   float32             
60     block_3_project_conv2d_output            256/1024        activations/**default**   float         float32             
61     block_4_expand_conv2d_output             1536/6144       activations/**default**   float         float32             
62     block_10_depthwise_conv2d_weights        1296/5184       weights/weights           const float   float32             
63     block_4_depthwise_conv2d_output          1536/6144       activations/**default**   float         float32             
64     block_4_project_conv2d_output            256/1024        activations/**default**   float         float32             
65     block_10_depthwise_conv2d_bias           144/576         weights/weights           const float   float32             
66     block_4_add_output                       256/1024        activations/**default**   float         float32             
67     block_5_expand_conv2d_output             1536/6144       activations/**default**   float         float32             
68     block_10_project_conv2d_weights          4608/18432      weights/weights           const float   float32             
69     block_5_depthwise_conv2d_output          1536/6144       activations/**default**   float         float32             
70     block_5_project_conv2d_output            256/1024        activations/**default**   float         float32             
71     block_10_project_conv2d_bias             32/128          weights/weights           const float   float32             
72     block_5_add_output                       256/1024        activations/**default**   float         float32             
73     block_6_expand_conv2d_output             1536/6144       activations/**default**   float         float32             
74     block_11_expand_conv2d_weights           6144/24576      weights/weights           const float   float32             
75     block_6_depthwise_conv2d_output          384/1536        activations/**default**   float         float32             
76     block_6_project_conv2d_output            96/384          activations/**default**   float         float32             
77     block_11_expand_conv2d_bias              192/768         weights/weights           const float   float32             
78     block_7_expand_conv2d_output             576/2304        activations/**default**   float         float32             
79     block_7_depthwise_conv2d_output          576/2304        activations/**default**   float         float32             
80     block_11_depthwise_conv2d_weights        1728/6912       weights/weights           const float   float32             
81     block_7_project_conv2d_output            96/384          activations/**default**   float         float32             
82     block_7_add_output                       96/384          activations/**default**   float         float32             
83     block_11_depthwise_conv2d_bias           192/768         weights/weights           const float   float32             
84     block_8_expand_conv2d_output             576/2304        activations/**default**   float         float32             
85     block_8_depthwise_conv2d_output          576/2304        activations/**default**   float         float32             
86     block_11_project_conv2d_weights          6144/24576      weights/weights           const float   float32             
87     block_8_project_conv2d_output            96/384          activations/**default**   float         float32             
88     block_8_add_output                       96/384          activations/**default**   float         float32             
89     block_11_project_conv2d_bias             32/128          weights/weights           const float   float32             
90     block_9_expand_conv2d_output             576/2304        activations/**default**   float         float32             
91     block_9_depthwise_conv2d_output          576/2304        activations/**default**   float         float32             
92     block_12_expand_conv2d_weights           6144/24576      weights/weights           const float   float32             
93     block_9_project_conv2d_output            96/384          activations/**default**   float         float32             
94     block_9_add_output                       96/384          activations/**default**   float         float32             
95     block_12_expand_conv2d_bias              192/768         weights/weights           const float   float32             
96     block_10_expand_conv2d_output            576/2304        activations/**default**   float         float32             
97     block_10_depthwise_conv2d_output         576/2304        activations/**default**   float         float32             
98     block_12_depthwise_conv2d_weights        1728/6912       weights/weights           const float   float32             
99     block_10_project_conv2d_output           128/512         activations/**default**   float         float32             
100    block_11_expand_conv2d_output            768/3072        activations/**default**   float         float32             
101    block_12_depthwise_conv2d_bias           192/768         weights/weights           const float   float32             
102    block_11_depthwise_conv2d_output         768/3072        activations/**default**   float         float32             
103    block_11_project_conv2d_output           128/512         activations/**default**   float         float32             
104    block_12_project_conv2d_weights          6144/24576      weights/weights           const float   float32             
105    block_11_add_output                      128/512         activations/**default**   float         float32             
106    block_12_expand_conv2d_output            768/3072        activations/**default**   float         float32             
107    block_12_project_conv2d_bias             32/128          weights/weights           const float   float32             
108    block_12_depthwise_conv2d_output         768/3072        activations/**default**   float         float32             
109    block_12_project_conv2d_output           128/512         activations/**default**   float         float32             
110    block_13_expand_conv2d_weights           6144/24576      weights/weights           const float   float32             
111    block_12_add_output                      128/512         activations/**default**   float         float32             
112    block_13_expand_conv2d_output            768/3072        activations/**default**   float         float32             
113    block_13_expand_conv2d_bias              192/768         weights/weights           const float   float32             
114    block_13_depthwise_conv2d_output         192/768         activations/**default**   float         float32             
115    block_13_project_conv2d_output           56/224          activations/**default**   float         float32             
116    block_13_depthwise_conv2d_weights        1728/6912       weights/weights           const float   float32             
117    block_14_expand_conv2d_output            336/1344        activations/**default**   float         float32             
118    block_14_depthwise_conv2d_output         336/1344        activations/**default**   float         float32             
119    block_13_depthwise_conv2d_bias           192/768         weights/weights           const float   float32             
120    block_14_project_conv2d_output           56/224          activations/**default**   float         float32             
121    block_14_add_output                      56/224          activations/**default**   float         float32             
122    block_13_project_conv2d_weights          10752/43008     weights/weights           const float   float32             
123    block_15_expand_conv2d_output            336/1344        activations/**default**   float         float32             
124    block_15_depthwise_conv2d_output         336/1344        activations/**default**   float         float32             
125    block_13_project_conv2d_bias             56/224          weights/weights           const float   float32             
126    block_15_project_conv2d_output           56/224          activations/**default**   float         float32             
127    block_15_add_output                      56/224          activations/**default**   float         float32             
128    block_14_expand_conv2d_weights           18816/75264     weights/weights           const float   float32             
129    block_16_expand_conv2d_output            336/1344        activations/**default**   float         float32             
130    block_16_depthwise_conv2d_output         336/1344        activations/**default**   float         float32             
131    block_14_expand_conv2d_bias              336/1344        weights/weights           const float   float32             
132    block_16_project_conv2d_output           112/448         activations/**default**   float         float32             
133    Conv_1_conv2d_output                     1280/5120       activations/**default**   float         float32             
134    block_14_depthwise_conv2d_weights        3024/12096      weights/weights           const float   float32             
135    dense_dense_output                       8/32            activations/**default**   float         float32             
136    dense_output                             8/32            activations/**default**   float         float32             
137    block_14_depthwise_conv2d_bias           336/1344        weights/weights           const float   float32             
138    dense_1_dense_output                     10/40           activations/**default**   float         float32             
139    dense_1_output                           10/40           activations/**default**   float         float32   /output   
140    block_14_project_conv2d_weights          18816/75264     weights/weights           const float   float32             
141    block_14_project_conv2d_bias             56/224          weights/weights           const float   float32             
142    block_15_expand_conv2d_weights           18816/75264     weights/weights           const float   float32             
143    block_15_expand_conv2d_bias              336/1344        weights/weights           const float   float32             
144    block_15_depthwise_conv2d_weights        3024/12096      weights/weights           const float   float32             
145    block_15_depthwise_conv2d_bias           336/1344        weights/weights           const float   float32             
146    block_15_project_conv2d_weights          18816/75264     weights/weights           const float   float32             
147    block_15_project_conv2d_bias             56/224          weights/weights           const float   float32             
148    block_16_expand_conv2d_weights           18816/75264     weights/weights           const float   float32             
149    block_16_expand_conv2d_bias              336/1344        weights/weights           const float   float32             
150    block_16_depthwise_conv2d_weights        3024/12096      weights/weights           const float   float32             
151    block_16_depthwise_conv2d_bias           336/1344        weights/weights           const float   float32             
152    block_16_project_conv2d_weights          37632/150528    weights/weights           const float   float32             
153    block_16_project_conv2d_bias             112/448         weights/weights           const float   float32             
154    Conv_1_conv2d_weights                    143360/573440   weights/weights           const float   float32             
155    Conv_1_conv2d_bias                       1280/5120       weights/weights           const float   float32             
156    dense_dense_weights                      10240/40960     weights/weights           const float   float32             
157    dense_dense_bias                         8/32            weights/weights           const float   float32             
158    dense_1_dense_weights                    80/320          weights/weights           const float   float32             
159    dense_1_dense_bias                       10/40           weights/weights           const float   float32             
160    Conv1_conv2d_weights                     432/1728        weights/weights           const float   float32             
161    Conv1_conv2d_bias                        16/64           weights/weights           const float   float32             
162    expanded_conv_depthwise_conv2d_weights   144/576         weights/weights           const float   float32             
163    expanded_conv_depthwise_conv2d_bias      16/64           weights/weights           const float   float32             
164    expanded_conv_project_conv2d_weights     128/512         weights/weights           const float   float32             
165    expanded_conv_project_conv2d_bias        8/32            weights/weights           const float   float32             
166    block_1_expand_conv2d_weights            384/1536        weights/weights           const float   float32             
167    block_1_expand_conv2d_bias               48/192          weights/weights           const float   float32             
168    block_1_depthwise_conv2d_weights         432/1728        weights/weights           const float   float32             
169    block_1_depthwise_conv2d_bias            48/192          weights/weights           const float   float32             
170    block_1_project_conv2d_weights           384/1536        weights/weights           const float   float32             
171    block_1_project_conv2d_bias              8/32            weights/weights           const float   float32             
172    block_2_expand_conv2d_weights            384/1536        weights/weights           const float   float32             
173    block_2_expand_conv2d_bias               48/192          weights/weights           const float   float32             
174    block_2_depthwise_conv2d_weights         432/1728        weights/weights           const float   float32             
------ ---------------------------------------- --------------- ------------------------- ------------- --------- --------- 

C-Layers (66)
------ -------------------------------- ----- ------------ -------- -------- ------------------------------------------- ---------------------- 
c_id   name (*_layer)                   id    layer_type   macc     rom      tensors                                     shape (array id)       
------ -------------------------------- ----- ------------ -------- -------- ------------------------------------------- ---------------------- 
0      Conv1_conv2d                     3     conv2d       118800   1792     I: input_0_output                           (1,32,32,3) (40)       
                                                                             W: Conv1_conv2d_weights                     (3,16,3,3) (160)       
                                                                             W: Conv1_conv2d_bias                        (1,1,1,16) (161)       
                                                                             O: Conv1_conv2d_output                      (1,16,16,16) (42)      
------ -------------------------------- ----- ------------ -------- -------- ------------------------------------------- ---------------------- 
1      expanded_conv_depthwise_conv2d   6     conv2d       45072    640      I: Conv1_conv2d_output                      (1,16,16,16) (42)      
                                                                             W: expanded_conv_depthwise_conv2d_weights   (1,16,3,3) (162)       
                                                                             W: expanded_conv_depthwise_conv2d_bias      (1,1,1,16) (163)       
                                                                             O: expanded_conv_depthwise_conv2d_output    (1,16,16,16) (43)      
------ -------------------------------- ----- ------------ -------- -------- ------------------------------------------- ---------------------- 
2      expanded_conv_project_conv2d     8     conv2d       32776    544      I: expanded_conv_depthwise_conv2d_output    (1,16,16,16) (43)      
                                                                             W: expanded_conv_project_conv2d_weights     (16,8,1,1) (164)       
                                                                             W: expanded_conv_project_conv2d_bias        (1,1,1,8) (165)        
                                                                             O: expanded_conv_project_conv2d_output      (1,16,16,8) (45)       
------ -------------------------------- ----- ------------ -------- -------- ------------------------------------------- ---------------------- 
3      block_1_expand_conv2d            11    conv2d       122928   1728     I: expanded_conv_project_conv2d_output      (1,16,16,8) (45)       
                                                                             W: block_1_expand_conv2d_weights            (8,48,1,1) (166)       
                                                                             W: block_1_expand_conv2d_bias               (1,1,1,48) (167)       
                                                                             O: block_1_expand_conv2d_output             (1,16,16,48) (46)      
------ -------------------------------- ----- ------------ -------- -------- ------------------------------------------- ---------------------- 
4      block_1_depthwise_conv2d         15    conv2d       33840    1920     I: block_1_expand_conv2d_output             (1,16,16,48) (46)      
                                                                             W: block_1_depthwise_conv2d_weights         (1,48,3,3) (168)       
                                                                             W: block_1_depthwise_conv2d_bias            (1,1,1,48) (169)       
                                                                             O: block_1_depthwise_conv2d_output          (1,8,8,48) (48)        
------ -------------------------------- ----- ------------ -------- -------- ------------------------------------------- ---------------------- 
5      block_1_project_conv2d           17    conv2d       24584    1568     I: block_1_depthwise_conv2d_output          (1,8,8,48) (48)        
                                                                             W: block_1_project_conv2d_weights           (48,8,1,1) (170)       
                                                                             W: block_1_project_conv2d_bias              (1,1,1,8) (171)        
                                                                             O: block_1_project_conv2d_output            (1,8,8,8) (49)         
------ -------------------------------- ----- ------------ -------- -------- ------------------------------------------- ---------------------- 
6      block_2_expand_conv2d            20    conv2d       30768    1728     I: block_1_project_conv2d_output            (1,8,8,8) (49)         
                                                                             W: block_2_expand_conv2d_weights            (8,48,1,1) (172)       
                                                                             W: block_2_expand_conv2d_bias               (1,1,1,48) (173)       
                                                                             O: block_2_expand_conv2d_output             (1,8,8,48) (51)        
------ -------------------------------- ----- ------------ -------- -------- ------------------------------------------- ---------------------- 
7      block_2_depthwise_conv2d         23    conv2d       33840    1920     I: block_2_expand_conv2d_output             (1,8,8,48) (51)        
                                                                             W: block_2_depthwise_conv2d_weights         (1,48,3,3) (174)       
                                                                             W: block_2_depthwise_conv2d_bias            (1,1,1,48) (0)         
                                                                             O: block_2_depthwise_conv2d_output          (1,8,8,48) (52)        
------ -------------------------------- ----- ------------ -------- -------- ------------------------------------------- ---------------------- 
8      block_2_project_conv2d           25    conv2d       24584    1568     I: block_2_depthwise_conv2d_output          (1,8,8,48) (52)        
                                                                             W: block_2_project_conv2d_weights           (48,8,1,1) (1)         
                                                                             W: block_2_project_conv2d_bias              (1,1,1,8) (2)          
                                                                             O: block_2_project_conv2d_output            (1,8,8,8) (54)         
------ -------------------------------- ----- ------------ -------- -------- ------------------------------------------- ---------------------- 
9      block_2_add                      26    eltwise      512      0        I: block_1_project_conv2d_output            (1,8,8,8) (49)         
                                                                             I: block_2_project_conv2d_output            (1,8,8,8) (54)         
                                                                             O: block_2_add_output                       (1,8,8,8) (55)         
------ -------------------------------- ----- ------------ -------- -------- ------------------------------------------- ---------------------- 
10     block_3_expand_conv2d            29    conv2d       30768    1728     I: block_2_add_output                       (1,8,8,8) (55)         
                                                                             W: block_3_expand_conv2d_weights            (8,48,1,1) (3)         
                                                                             W: block_3_expand_conv2d_bias               (1,1,1,48) (4)         
                                                                             O: block_3_expand_conv2d_output             (1,8,8,48) (57)        
------ -------------------------------- ----- ------------ -------- -------- ------------------------------------------- ---------------------- 
11     block_3_depthwise_conv2d         33    conv2d       8496     1920     I: block_3_expand_conv2d_output             (1,8,8,48) (57)        
                                                                             W: block_3_depthwise_conv2d_weights         (1,48,3,3) (5)         
                                                                             W: block_3_depthwise_conv2d_bias            (1,1,1,48) (6)         
                                                                             O: block_3_depthwise_conv2d_output          (1,4,4,48) (58)        
------ -------------------------------- ----- ------------ -------- -------- ------------------------------------------- ---------------------- 
12     block_3_project_conv2d           35    conv2d       12304    3136     I: block_3_depthwise_conv2d_output          (1,4,4,48) (58)        
                                                                             W: block_3_project_conv2d_weights           (48,16,1,1) (7)        
                                                                             W: block_3_project_conv2d_bias              (1,1,1,16) (8)         
                                                                             O: block_3_project_conv2d_output            (1,4,4,16) (60)        
------ -------------------------------- ----- ------------ -------- -------- ------------------------------------------- ---------------------- 
13     block_4_expand_conv2d            38    conv2d       27744    6528     I: block_3_project_conv2d_output            (1,4,4,16) (60)        
                                                                             W: block_4_expand_conv2d_weights            (16,96,1,1) (9)        
                                                                             W: block_4_expand_conv2d_bias               (1,1,1,96) (10)        
                                                                             O: block_4_expand_conv2d_output             (1,4,4,96) (61)        
------ -------------------------------- ----- ------------ -------- -------- ------------------------------------------- ---------------------- 
14     block_4_depthwise_conv2d         41    conv2d       16992    3840     I: block_4_expand_conv2d_output             (1,4,4,96) (61)        
                                                                             W: block_4_depthwise_conv2d_weights         (1,96,3,3) (11)        
                                                                             W: block_4_depthwise_conv2d_bias            (1,1,1,96) (12)        
                                                                             O: block_4_depthwise_conv2d_output          (1,4,4,96) (63)        
------ -------------------------------- ----- ------------ -------- -------- ------------------------------------------- ---------------------- 
15     block_4_project_conv2d           43    conv2d       24592    6208     I: block_4_depthwise_conv2d_output          (1,4,4,96) (63)        
                                                                             W: block_4_project_conv2d_weights           (96,16,1,1) (13)       
                                                                             W: block_4_project_conv2d_bias              (1,1,1,16) (14)        
                                                                             O: block_4_project_conv2d_output            (1,4,4,16) (64)        
------ -------------------------------- ----- ------------ -------- -------- ------------------------------------------- ---------------------- 
16     block_4_add                      44    eltwise      256      0        I: block_3_project_conv2d_output            (1,4,4,16) (60)        
                                                                             I: block_4_project_conv2d_output            (1,4,4,16) (64)        
                                                                             O: block_4_add_output                       (1,4,4,16) (66)        
------ -------------------------------- ----- ------------ -------- -------- ------------------------------------------- ---------------------- 
17     block_5_expand_conv2d            47    conv2d       27744    6528     I: block_4_add_output                       (1,4,4,16) (66)        
                                                                             W: block_5_expand_conv2d_weights            (16,96,1,1) (15)       
                                                                             W: block_5_expand_conv2d_bias               (1,1,1,96) (16)        
                                                                             O: block_5_expand_conv2d_output             (1,4,4,96) (67)        
------ -------------------------------- ----- ------------ -------- -------- ------------------------------------------- ---------------------- 
18     block_5_depthwise_conv2d         50    conv2d       16992    3840     I: block_5_expand_conv2d_output             (1,4,4,96) (67)        
                                                                             W: block_5_depthwise_conv2d_weights         (1,96,3,3) (17)        
                                                                             W: block_5_depthwise_conv2d_bias            (1,1,1,96) (18)        
                                                                             O: block_5_depthwise_conv2d_output          (1,4,4,96) (69)        
------ -------------------------------- ----- ------------ -------- -------- ------------------------------------------- ---------------------- 
19     block_5_project_conv2d           52    conv2d       24592    6208     I: block_5_depthwise_conv2d_output          (1,4,4,96) (69)        
                                                                             W: block_5_project_conv2d_weights           (96,16,1,1) (19)       
                                                                             W: block_5_project_conv2d_bias              (1,1,1,16) (20)        
                                                                             O: block_5_project_conv2d_output            (1,4,4,16) (70)        
------ -------------------------------- ----- ------------ -------- -------- ------------------------------------------- ---------------------- 
20     block_5_add                      53    eltwise      256      0        I: block_4_add_output                       (1,4,4,16) (66)        
                                                                             I: block_5_project_conv2d_output            (1,4,4,16) (70)        
                                                                             O: block_5_add_output                       (1,4,4,16) (72)        
------ -------------------------------- ----- ------------ -------- -------- ------------------------------------------- ---------------------- 
21     block_6_expand_conv2d            56    conv2d       27744    6528     I: block_5_add_output                       (1,4,4,16) (72)        
                                                                             W: block_6_expand_conv2d_weights            (16,96,1,1) (21)       
                                                                             W: block_6_expand_conv2d_bias               (1,1,1,96) (22)        
                                                                             O: block_6_expand_conv2d_output             (1,4,4,96) (73)        
------ -------------------------------- ----- ------------ -------- -------- ------------------------------------------- ---------------------- 
22     block_6_depthwise_conv2d         60    conv2d       4320     3840     I: block_6_expand_conv2d_output             (1,4,4,96) (73)        
                                                                             W: block_6_depthwise_conv2d_weights         (1,96,3,3) (23)        
                                                                             W: block_6_depthwise_conv2d_bias            (1,1,1,96) (24)        
                                                                             O: block_6_depthwise_conv2d_output          (1,2,2,96) (75)        
------ -------------------------------- ----- ------------ -------- -------- ------------------------------------------- ---------------------- 
23     block_6_project_conv2d           62    conv2d       9240     9312     I: block_6_depthwise_conv2d_output          (1,2,2,96) (75)        
                                                                             W: block_6_project_conv2d_weights           (96,24,1,1) (25)       
                                                                             W: block_6_project_conv2d_bias              (1,1,1,24) (26)        
                                                                             O: block_6_project_conv2d_output            (1,2,2,24) (76)        
------ -------------------------------- ----- ------------ -------- -------- ------------------------------------------- ---------------------- 
24     block_7_expand_conv2d            65    conv2d       15120    14400    I: block_6_project_conv2d_output            (1,2,2,24) (76)        
                                                                             W: block_7_expand_conv2d_weights            (24,144,1,1) (27)      
                                                                             W: block_7_expand_conv2d_bias               (1,1,1,144) (28)       
                                                                             O: block_7_expand_conv2d_output             (1,2,2,144) (78)       
------ -------------------------------- ----- ------------ -------- -------- ------------------------------------------- ---------------------- 
25     block_7_depthwise_conv2d         68    conv2d       6480     5760     I: block_7_expand_conv2d_output             (1,2,2,144) (78)       
                                                                             W: block_7_depthwise_conv2d_weights         (1,144,3,3) (29)       
                                                                             W: block_7_depthwise_conv2d_bias            (1,1,1,144) (30)       
                                                                             O: block_7_depthwise_conv2d_output          (1,2,2,144) (79)       
------ -------------------------------- ----- ------------ -------- -------- ------------------------------------------- ---------------------- 
26     block_7_project_conv2d           70    conv2d       13848    13920    I: block_7_depthwise_conv2d_output          (1,2,2,144) (79)       
                                                                             W: block_7_project_conv2d_weights           (144,24,1,1) (31)      
                                                                             W: block_7_project_conv2d_bias              (1,1,1,24) (32)        
                                                                             O: block_7_project_conv2d_output            (1,2,2,24) (81)        
------ -------------------------------- ----- ------------ -------- -------- ------------------------------------------- ---------------------- 
27     block_7_add                      71    eltwise      96       0        I: block_6_project_conv2d_output            (1,2,2,24) (76)        
                                                                             I: block_7_project_conv2d_output            (1,2,2,24) (81)        
                                                                             O: block_7_add_output                       (1,2,2,24) (82)        
------ -------------------------------- ----- ------------ -------- -------- ------------------------------------------- ---------------------- 
28     block_8_expand_conv2d            74    conv2d       15120    14400    I: block_7_add_output                       (1,2,2,24) (82)        
                                                                             W: block_8_expand_conv2d_weights            (24,144,1,1) (33)      
                                                                             W: block_8_expand_conv2d_bias               (1,1,1,144) (34)       
                                                                             O: block_8_expand_conv2d_output             (1,2,2,144) (84)       
------ -------------------------------- ----- ------------ -------- -------- ------------------------------------------- ---------------------- 
29     block_8_depthwise_conv2d         77    conv2d       6480     5760     I: block_8_expand_conv2d_output             (1,2,2,144) (84)       
                                                                             W: block_8_depthwise_conv2d_weights         (1,144,3,3) (35)       
                                                                             W: block_8_depthwise_conv2d_bias            (1,1,1,144) (36)       
                                                                             O: block_8_depthwise_conv2d_output          (1,2,2,144) (85)       
------ -------------------------------- ----- ------------ -------- -------- ------------------------------------------- ---------------------- 
30     block_8_project_conv2d           79    conv2d       13848    13920    I: block_8_depthwise_conv2d_output          (1,2,2,144) (85)       
                                                                             W: block_8_project_conv2d_weights           (144,24,1,1) (37)      
                                                                             W: block_8_project_conv2d_bias              (1,1,1,24) (38)        
                                                                             O: block_8_project_conv2d_output            (1,2,2,24) (87)        
------ -------------------------------- ----- ------------ -------- -------- ------------------------------------------- ---------------------- 
31     block_8_add                      80    eltwise      96       0        I: block_7_add_output                       (1,2,2,24) (82)        
                                                                             I: block_8_project_conv2d_output            (1,2,2,24) (87)        
                                                                             O: block_8_add_output                       (1,2,2,24) (88)        
------ -------------------------------- ----- ------------ -------- -------- ------------------------------------------- ---------------------- 
32     block_9_expand_conv2d            83    conv2d       15120    14400    I: block_8_add_output                       (1,2,2,24) (88)        
                                                                             W: block_9_expand_conv2d_weights            (24,144,1,1) (39)      
                                                                             W: block_9_expand_conv2d_bias               (1,1,1,144) (41)       
                                                                             O: block_9_expand_conv2d_output             (1,2,2,144) (90)       
------ -------------------------------- ----- ------------ -------- -------- ------------------------------------------- ---------------------- 
33     block_9_depthwise_conv2d         86    conv2d       6480     5760     I: block_9_expand_conv2d_output             (1,2,2,144) (90)       
                                                                             W: block_9_depthwise_conv2d_weights         (1,144,3,3) (44)       
                                                                             W: block_9_depthwise_conv2d_bias            (1,1,1,144) (47)       
                                                                             O: block_9_depthwise_conv2d_output          (1,2,2,144) (91)       
------ -------------------------------- ----- ------------ -------- -------- ------------------------------------------- ---------------------- 
34     block_9_project_conv2d           88    conv2d       13848    13920    I: block_9_depthwise_conv2d_output          (1,2,2,144) (91)       
                                                                             W: block_9_project_conv2d_weights           (144,24,1,1) (50)      
                                                                             W: block_9_project_conv2d_bias              (1,1,1,24) (53)        
                                                                             O: block_9_project_conv2d_output            (1,2,2,24) (93)        
------ -------------------------------- ----- ------------ -------- -------- ------------------------------------------- ---------------------- 
35     block_9_add                      89    eltwise      96       0        I: block_8_add_output                       (1,2,2,24) (88)        
                                                                             I: block_9_project_conv2d_output            (1,2,2,24) (93)        
                                                                             O: block_9_add_output                       (1,2,2,24) (94)        
------ -------------------------------- ----- ------------ -------- -------- ------------------------------------------- ---------------------- 
36     block_10_expand_conv2d           92    conv2d       15120    14400    I: block_9_add_output                       (1,2,2,24) (94)        
                                                                             W: block_10_expand_conv2d_weights           (24,144,1,1) (56)      
                                                                             W: block_10_expand_conv2d_bias              (1,1,1,144) (59)       
                                                                             O: block_10_expand_conv2d_output            (1,2,2,144) (96)       
------ -------------------------------- ----- ------------ -------- -------- ------------------------------------------- ---------------------- 
37     block_10_depthwise_conv2d        95    conv2d       6480     5760     I: block_10_expand_conv2d_output            (1,2,2,144) (96)       
                                                                             W: block_10_depthwise_conv2d_weights        (1,144,3,3) (62)       
                                                                             W: block_10_depthwise_conv2d_bias           (1,1,1,144) (65)       
                                                                             O: block_10_depthwise_conv2d_output         (1,2,2,144) (97)       
------ -------------------------------- ----- ------------ -------- -------- ------------------------------------------- ---------------------- 
38     block_10_project_conv2d          97    conv2d       18464    18560    I: block_10_depthwise_conv2d_output         (1,2,2,144) (97)       
                                                                             W: block_10_project_conv2d_weights          (144,32,1,1) (68)      
                                                                             W: block_10_project_conv2d_bias             (1,1,1,32) (71)        
                                                                             O: block_10_project_conv2d_output           (1,2,2,32) (99)        
------ -------------------------------- ----- ------------ -------- -------- ------------------------------------------- ---------------------- 
39     block_11_expand_conv2d           100   conv2d       26304    25344    I: block_10_project_conv2d_output           (1,2,2,32) (99)        
                                                                             W: block_11_expand_conv2d_weights           (32,192,1,1) (74)      
                                                                             W: block_11_expand_conv2d_bias              (1,1,1,192) (77)       
                                                                             O: block_11_expand_conv2d_output            (1,2,2,192) (100)      
------ -------------------------------- ----- ------------ -------- -------- ------------------------------------------- ---------------------- 
40     block_11_depthwise_conv2d        103   conv2d       8640     7680     I: block_11_expand_conv2d_output            (1,2,2,192) (100)      
                                                                             W: block_11_depthwise_conv2d_weights        (1,192,3,3) (80)       
                                                                             W: block_11_depthwise_conv2d_bias           (1,1,1,192) (83)       
                                                                             O: block_11_depthwise_conv2d_output         (1,2,2,192) (102)      
------ -------------------------------- ----- ------------ -------- -------- ------------------------------------------- ---------------------- 
41     block_11_project_conv2d          105   conv2d       24608    24704    I: block_11_depthwise_conv2d_output         (1,2,2,192) (102)      
                                                                             W: block_11_project_conv2d_weights          (192,32,1,1) (86)      
                                                                             W: block_11_project_conv2d_bias             (1,1,1,32) (89)        
                                                                             O: block_11_project_conv2d_output           (1,2,2,32) (103)       
------ -------------------------------- ----- ------------ -------- -------- ------------------------------------------- ---------------------- 
42     block_11_add                     106   eltwise      128      0        I: block_10_project_conv2d_output           (1,2,2,32) (99)        
                                                                             I: block_11_project_conv2d_output           (1,2,2,32) (103)       
                                                                             O: block_11_add_output                      (1,2,2,32) (105)       
------ -------------------------------- ----- ------------ -------- -------- ------------------------------------------- ---------------------- 
43     block_12_expand_conv2d           109   conv2d       26304    25344    I: block_11_add_output                      (1,2,2,32) (105)       
                                                                             W: block_12_expand_conv2d_weights           (32,192,1,1) (92)      
                                                                             W: block_12_expand_conv2d_bias              (1,1,1,192) (95)       
                                                                             O: block_12_expand_conv2d_output            (1,2,2,192) (106)      
------ -------------------------------- ----- ------------ -------- -------- ------------------------------------------- ---------------------- 
44     block_12_depthwise_conv2d        112   conv2d       8640     7680     I: block_12_expand_conv2d_output            (1,2,2,192) (106)      
                                                                             W: block_12_depthwise_conv2d_weights        (1,192,3,3) (98)       
                                                                             W: block_12_depthwise_conv2d_bias           (1,1,1,192) (101)      
                                                                             O: block_12_depthwise_conv2d_output         (1,2,2,192) (108)      
------ -------------------------------- ----- ------------ -------- -------- ------------------------------------------- ---------------------- 
45     block_12_project_conv2d          114   conv2d       24608    24704    I: block_12_depthwise_conv2d_output         (1,2,2,192) (108)      
                                                                             W: block_12_project_conv2d_weights          (192,32,1,1) (104)     
                                                                             W: block_12_project_conv2d_bias             (1,1,1,32) (107)       
                                                                             O: block_12_project_conv2d_output           (1,2,2,32) (109)       
------ -------------------------------- ----- ------------ -------- -------- ------------------------------------------- ---------------------- 
46     block_12_add                     115   eltwise      128      0        I: block_11_add_output                      (1,2,2,32) (105)       
                                                                             I: block_12_project_conv2d_output           (1,2,2,32) (109)       
                                                                             O: block_12_add_output                      (1,2,2,32) (111)       
------ -------------------------------- ----- ------------ -------- -------- ------------------------------------------- ---------------------- 
47     block_13_expand_conv2d           118   conv2d       26304    25344    I: block_12_add_output                      (1,2,2,32) (111)       
                                                                             W: block_13_expand_conv2d_weights           (32,192,1,1) (110)     
                                                                             W: block_13_expand_conv2d_bias              (1,1,1,192) (113)      
                                                                             O: block_13_expand_conv2d_output            (1,2,2,192) (112)      
------ -------------------------------- ----- ------------ -------- -------- ------------------------------------------- ---------------------- 
48     block_13_depthwise_conv2d        122   conv2d       2304     7680     I: block_13_expand_conv2d_output            (1,2,2,192) (112)      
                                                                             W: block_13_depthwise_conv2d_weights        (1,192,3,3) (116)      
                                                                             W: block_13_depthwise_conv2d_bias           (1,1,1,192) (119)      
                                                                             O: block_13_depthwise_conv2d_output         (1,1,1,192) (114)      
------ -------------------------------- ----- ------------ -------- -------- ------------------------------------------- ---------------------- 
49     block_13_project_conv2d          124   conv2d       10808    43232    I: block_13_depthwise_conv2d_output         (1,1,1,192) (114)      
                                                                             W: block_13_project_conv2d_weights          (192,56,1,1) (122)     
                                                                             W: block_13_project_conv2d_bias             (1,1,1,56) (125)       
                                                                             O: block_13_project_conv2d_output           (1,1,1,56) (115)       
------ -------------------------------- ----- ------------ -------- -------- ------------------------------------------- ---------------------- 
50     block_14_expand_conv2d           127   conv2d       19824    76608    I: block_13_project_conv2d_output           (1,1,1,56) (115)       
                                                                             W: block_14_expand_conv2d_weights           (56,336,1,1) (128)     
                                                                             W: block_14_expand_conv2d_bias              (1,1,1,336) (131)      
                                                                             O: block_14_expand_conv2d_output            (1,1,1,336) (117)      
------ -------------------------------- ----- ------------ -------- -------- ------------------------------------------- ---------------------- 
51     block_14_depthwise_conv2d        130   conv2d       4032     13440    I: block_14_expand_conv2d_output            (1,1,1,336) (117)      
                                                                             W: block_14_depthwise_conv2d_weights        (1,336,3,3) (134)      
                                                                             W: block_14_depthwise_conv2d_bias           (1,1,1,336) (137)      
                                                                             O: block_14_depthwise_conv2d_output         (1,1,1,336) (118)      
------ -------------------------------- ----- ------------ -------- -------- ------------------------------------------- ---------------------- 
52     block_14_project_conv2d          132   conv2d       18872    75488    I: block_14_depthwise_conv2d_output         (1,1,1,336) (118)      
                                                                             W: block_14_project_conv2d_weights          (336,56,1,1) (140)     
                                                                             W: block_14_project_conv2d_bias             (1,1,1,56) (141)       
                                                                             O: block_14_project_conv2d_output           (1,1,1,56) (120)       
------ -------------------------------- ----- ------------ -------- -------- ------------------------------------------- ---------------------- 
53     block_14_add                     133   eltwise      56       0        I: block_13_project_conv2d_output           (1,1,1,56) (115)       
                                                                             I: block_14_project_conv2d_output           (1,1,1,56) (120)       
                                                                             O: block_14_add_output                      (1,1,1,56) (121)       
------ -------------------------------- ----- ------------ -------- -------- ------------------------------------------- ---------------------- 
54     block_15_expand_conv2d           136   conv2d       19824    76608    I: block_14_add_output                      (1,1,1,56) (121)       
                                                                             W: block_15_expand_conv2d_weights           (56,336,1,1) (142)     
                                                                             W: block_15_expand_conv2d_bias              (1,1,1,336) (143)      
                                                                             O: block_15_expand_conv2d_output            (1,1,1,336) (123)      
------ -------------------------------- ----- ------------ -------- -------- ------------------------------------------- ---------------------- 
55     block_15_depthwise_conv2d        139   conv2d       4032     13440    I: block_15_expand_conv2d_output            (1,1,1,336) (123)      
                                                                             W: block_15_depthwise_conv2d_weights        (1,336,3,3) (144)      
                                                                             W: block_15_depthwise_conv2d_bias           (1,1,1,336) (145)      
                                                                             O: block_15_depthwise_conv2d_output         (1,1,1,336) (124)      
------ -------------------------------- ----- ------------ -------- -------- ------------------------------------------- ---------------------- 
56     block_15_project_conv2d          141   conv2d       18872    75488    I: block_15_depthwise_conv2d_output         (1,1,1,336) (124)      
                                                                             W: block_15_project_conv2d_weights          (336,56,1,1) (146)     
                                                                             W: block_15_project_conv2d_bias             (1,1,1,56) (147)       
                                                                             O: block_15_project_conv2d_output           (1,1,1,56) (126)       
------ -------------------------------- ----- ------------ -------- -------- ------------------------------------------- ---------------------- 
57     block_15_add                     142   eltwise      56       0        I: block_14_add_output                      (1,1,1,56) (121)       
                                                                             I: block_15_project_conv2d_output           (1,1,1,56) (126)       
                                                                             O: block_15_add_output                      (1,1,1,56) (127)       
------ -------------------------------- ----- ------------ -------- -------- ------------------------------------------- ---------------------- 
58     block_16_expand_conv2d           145   conv2d       19824    76608    I: block_15_add_output                      (1,1,1,56) (127)       
                                                                             W: block_16_expand_conv2d_weights           (56,336,1,1) (148)     
                                                                             W: block_16_expand_conv2d_bias              (1,1,1,336) (149)      
                                                                             O: block_16_expand_conv2d_output            (1,1,1,336) (129)      
------ -------------------------------- ----- ------------ -------- -------- ------------------------------------------- ---------------------- 
59     block_16_depthwise_conv2d        148   conv2d       4032     13440    I: block_16_expand_conv2d_output            (1,1,1,336) (129)      
                                                                             W: block_16_depthwise_conv2d_weights        (1,336,3,3) (150)      
                                                                             W: block_16_depthwise_conv2d_bias           (1,1,1,336) (151)      
                                                                             O: block_16_depthwise_conv2d_output         (1,1,1,336) (130)      
------ -------------------------------- ----- ------------ -------- -------- ------------------------------------------- ---------------------- 
60     block_16_project_conv2d          150   conv2d       37744    150976   I: block_16_depthwise_conv2d_output         (1,1,1,336) (130)      
                                                                             W: block_16_project_conv2d_weights          (336,112,1,1) (152)    
                                                                             W: block_16_project_conv2d_bias             (1,1,1,112) (153)      
                                                                             O: block_16_project_conv2d_output           (1,1,1,112) (132)      
------ -------------------------------- ----- ------------ -------- -------- ------------------------------------------- ---------------------- 
61     Conv_1_conv2d                    153   conv2d       147200   578560   I: block_16_project_conv2d_output           (1,1,1,112) (132)      
                                                                             W: Conv_1_conv2d_weights                    (112,1280,1,1) (154)   
                                                                             W: Conv_1_conv2d_bias                       (1,1,1,1280) (155)     
                                                                             O: Conv_1_conv2d_output                     (1,1,1,1280) (133)     
------ -------------------------------- ----- ------------ -------- -------- ------------------------------------------- ---------------------- 
62     dense_dense                      2     dense        10248    40992    I: Conv_1_conv2d_output                     (1,1,1,1280) (133)     
                                                                             W: dense_dense_weights                      (1280,1,1,8) (156)     
                                                                             W: dense_dense_bias                         (1,1,1,8) (157)        
                                                                             O: dense_dense_output                       (1,1,1,8) (135)        
------ -------------------------------- ----- ------------ -------- -------- ------------------------------------------- ---------------------- 
63     dense                            2     nl           8        0        I: dense_dense_output                       (1,1,1,8) (135)        
                                                                             O: dense_output                             (1,1,1,8) (136)        
------ -------------------------------- ----- ------------ -------- -------- ------------------------------------------- ---------------------- 
64     dense_1_dense                    5     dense        90       360      I: dense_output                             (1,1,1,8) (136)        
                                                                             W: dense_1_dense_weights                    (8,1,1,10) (158)       
                                                                             W: dense_1_dense_bias                       (1,1,1,10) (159)       
                                                                             O: dense_1_dense_output                     (1,1,1,10) (138)       
------ -------------------------------- ----- ------------ -------- -------- ------------------------------------------- ---------------------- 
65     dense_1                          5     nl           150      0        I: dense_1_dense_output                     (1,1,1,10) (138)       
                                                                             O: dense_1_output                           (1,1,1,10) (139)       
------ -------------------------------- ----- ------------ -------- -------- ------------------------------------------- ---------------------- 



Number of operations per c-layer
------- ------ ----------------------------------------- ----------- -------------- --------- ---------- 
c_id    m_id   name (type)                                       #op           type    #param   sparsity 
------- ------ ----------------------------------------- ----------- -------------- --------- ---------- 
0       3      Conv1_conv2d (conv2d)                         118,800   smul_f32_f32       448     0.0000 
1       6      expanded_conv_depthwise_conv2d (conv2d)        45,072   smul_f32_f32       160     0.0000 
2       8      expanded_conv_project_conv2d (conv2d)          32,776   smul_f32_f32       136     0.0000 
3       11     block_1_expand_conv2d (conv2d)                122,928   smul_f32_f32       432     0.0000 
4       15     block_1_depthwise_conv2d (conv2d)              33,840   smul_f32_f32       480     0.0000 
5       17     block_1_project_conv2d (conv2d)                24,584   smul_f32_f32       392     0.0000 
6       20     block_2_expand_conv2d (conv2d)                 30,768   smul_f32_f32       432     0.0000 
7       23     block_2_depthwise_conv2d (conv2d)              33,840   smul_f32_f32       480     0.0000 
8       25     block_2_project_conv2d (conv2d)                24,584   smul_f32_f32       392     0.0000 
9       26     block_2_add (eltwise)                             512     op_f32_f32           
10      29     block_3_expand_conv2d (conv2d)                 30,768   smul_f32_f32       432     0.0000 
11      33     block_3_depthwise_conv2d (conv2d)               8,496   smul_f32_f32       480     0.0000 
12      35     block_3_project_conv2d (conv2d)                12,304   smul_f32_f32       784     0.0000 
13      38     block_4_expand_conv2d (conv2d)                 27,744   smul_f32_f32     1,632     0.0000 
14      41     block_4_depthwise_conv2d (conv2d)              16,992   smul_f32_f32       960     0.0000 
15      43     block_4_project_conv2d (conv2d)                24,592   smul_f32_f32     1,552     0.0000 
16      44     block_4_add (eltwise)                             256     op_f32_f32           
17      47     block_5_expand_conv2d (conv2d)                 27,744   smul_f32_f32     1,632     0.0000 
18      50     block_5_depthwise_conv2d (conv2d)              16,992   smul_f32_f32       960     0.0000 
19      52     block_5_project_conv2d (conv2d)                24,592   smul_f32_f32     1,552     0.0000 
20      53     block_5_add (eltwise)                             256     op_f32_f32           
21      56     block_6_expand_conv2d (conv2d)                 27,744   smul_f32_f32     1,632     0.0000 
22      60     block_6_depthwise_conv2d (conv2d)               4,320   smul_f32_f32       960     0.0000 
23      62     block_6_project_conv2d (conv2d)                 9,240   smul_f32_f32     2,328     0.0000 
24      65     block_7_expand_conv2d (conv2d)                 15,120   smul_f32_f32     3,600     0.0000 
25      68     block_7_depthwise_conv2d (conv2d)               6,480   smul_f32_f32     1,440     0.0000 
26      70     block_7_project_conv2d (conv2d)                13,848   smul_f32_f32     3,480     0.0000 
27      71     block_7_add (eltwise)                              96     op_f32_f32           
28      74     block_8_expand_conv2d (conv2d)                 15,120   smul_f32_f32     3,600     0.0000 
29      77     block_8_depthwise_conv2d (conv2d)               6,480   smul_f32_f32     1,440     0.0000 
30      79     block_8_project_conv2d (conv2d)                13,848   smul_f32_f32     3,480     0.0000 
31      80     block_8_add (eltwise)                              96     op_f32_f32           
32      83     block_9_expand_conv2d (conv2d)                 15,120   smul_f32_f32     3,600     0.0000 
33      86     block_9_depthwise_conv2d (conv2d)               6,480   smul_f32_f32     1,440     0.0000 
34      88     block_9_project_conv2d (conv2d)                13,848   smul_f32_f32     3,480     0.0000 
35      89     block_9_add (eltwise)                              96     op_f32_f32           
36      92     block_10_expand_conv2d (conv2d)                15,120   smul_f32_f32     3,600     0.0000 
37      95     block_10_depthwise_conv2d (conv2d)              6,480   smul_f32_f32     1,440     0.0000 
38      97     block_10_project_conv2d (conv2d)               18,464   smul_f32_f32     4,640     0.0000 
39      100    block_11_expand_conv2d (conv2d)                26,304   smul_f32_f32     6,336     0.0000 
40      103    block_11_depthwise_conv2d (conv2d)              8,640   smul_f32_f32     1,920     0.0000 
41      105    block_11_project_conv2d (conv2d)               24,608   smul_f32_f32     6,176     0.0000 
42      106    block_11_add (eltwise)                            128     op_f32_f32           
43      109    block_12_expand_conv2d (conv2d)                26,304   smul_f32_f32     6,336     0.0000 
44      112    block_12_depthwise_conv2d (conv2d)              8,640   smul_f32_f32     1,920     0.0000 
45      114    block_12_project_conv2d (conv2d)               24,608   smul_f32_f32     6,176     0.0000 
46      115    block_12_add (eltwise)                            128     op_f32_f32           
47      118    block_13_expand_conv2d (conv2d)                26,304   smul_f32_f32     6,336     0.0000 
48      122    block_13_depthwise_conv2d (conv2d)              2,304   smul_f32_f32     1,920     0.0000 
49      124    block_13_project_conv2d (conv2d)               10,808   smul_f32_f32    10,808     0.0000 
50      127    block_14_expand_conv2d (conv2d)                19,824   smul_f32_f32    19,152     0.0000 
51      130    block_14_depthwise_conv2d (conv2d)              4,032   smul_f32_f32     3,360     0.0000 
52      132    block_14_project_conv2d (conv2d)               18,872   smul_f32_f32    18,872     0.0000 
53      133    block_14_add (eltwise)                             56     op_f32_f32           
54      136    block_15_expand_conv2d (conv2d)                19,824   smul_f32_f32    19,152     0.0000 
55      139    block_15_depthwise_conv2d (conv2d)              4,032   smul_f32_f32     3,360     0.0000 
56      141    block_15_project_conv2d (conv2d)               18,872   smul_f32_f32    18,872     0.0000 
57      142    block_15_add (eltwise)                             56     op_f32_f32           
58      145    block_16_expand_conv2d (conv2d)                19,824   smul_f32_f32    19,152     0.0000 
59      148    block_16_depthwise_conv2d (conv2d)              4,032   smul_f32_f32     3,360     0.0000 
60      150    block_16_project_conv2d (conv2d)               37,744   smul_f32_f32    37,744     0.0000 
61      153    Conv_1_conv2d (conv2d)                        147,200   smul_f32_f32   144,640     0.0000 
62      2      dense_dense (dense)                            10,248   smul_f32_f32    10,248     0.0000 
63      2      dense (nl)                                          8     op_f32_f32           
64      5      dense_1_dense (dense)                              90   smul_f32_f32        90     0.0000 
65      5      dense_1 (nl)                                      150     op_f32_f32           
------- ------ ----------------------------------------- ----------- -------------- --------- ---------- 
total                                                      1,310,080                  399,426     0.0000 

Number of operation types
---------------- ----------- ----------- 
operation type             #           % 
---------------- ----------- ----------- 
smul_f32_f32       1,308,242       99.9% 
op_f32_f32             1,838        0.1% 

Complexity report (model)
------ ------------------------------ ------------------------- ------------------------- ---------- 
m_id   name                           c_macc                    c_rom                     c_id       
------ ------------------------------ ------------------------- ------------------------- ---------- 
2      bn_Conv1                       ||                 0.8%   ||                 2.6%   [62, 63]   
3      Conv1_relu                     |||||||||||||      9.1%   |                  0.1%   [0]        
5      expanded_conv_depthwise_BN     |                  0.0%   |                  0.0%   [64, 65]   
6      expanded_conv_depthwise_relu   |||||              3.4%   |                  0.0%   [1]        
8      expanded_conv_project_BN       ||||               2.5%   |                  0.0%   [2]        
11     block_1_expand_relu            |||||||||||||      9.4%   |                  0.1%   [3]        
15     block_1_depthwise_relu         ||||               2.6%   |                  0.1%   [4]        
17     block_1_project_BN             |||                1.9%   |                  0.1%   [5]        
20     block_2_expand_relu            ||||               2.3%   |                  0.1%   [6]        
23     block_2_depthwise_relu         ||||               2.6%   |                  0.1%   [7]        
25     block_2_project_BN             |||                1.9%   |                  0.1%   [8]        
26     block_2_add                    |                  0.0%   |                  0.0%   [9]        
29     block_3_expand_relu            ||||               2.3%   |                  0.1%   [10]       
33     block_3_depthwise_relu         |                  0.6%   |                  0.1%   [11]       
35     block_3_project_BN             ||                 0.9%   |                  0.2%   [12]       
38     block_4_expand_relu            |||                2.1%   |                  0.4%   [13]       
41     block_4_depthwise_relu         ||                 1.3%   |                  0.2%   [14]       
43     block_4_project_BN             |||                1.9%   |                  0.4%   [15]       
44     block_4_add                    |                  0.0%   |                  0.0%   [16]       
47     block_5_expand_relu            |||                2.1%   |                  0.4%   [17]       
50     block_5_depthwise_relu         ||                 1.3%   |                  0.2%   [18]       
52     block_5_project_BN             |||                1.9%   |                  0.4%   [19]       
53     block_5_add                    |                  0.0%   |                  0.0%   [20]       
56     block_6_expand_relu            |||                2.1%   |                  0.4%   [21]       
60     block_6_depthwise_relu         |                  0.3%   |                  0.2%   [22]       
62     block_6_project_BN             |                  0.7%   |                  0.6%   [23]       
65     block_7_expand_relu            ||                 1.2%   |                  0.9%   [24]       
68     block_7_depthwise_relu         |                  0.5%   |                  0.4%   [25]       
70     block_7_project_BN             ||                 1.1%   |                  0.9%   [26]       
71     block_7_add                    |                  0.0%   |                  0.0%   [27]       
74     block_8_expand_relu            ||                 1.2%   |                  0.9%   [28]       
77     block_8_depthwise_relu         |                  0.5%   |                  0.4%   [29]       
79     block_8_project_BN             ||                 1.1%   |                  0.9%   [30]       
80     block_8_add                    |                  0.0%   |                  0.0%   [31]       
83     block_9_expand_relu            ||                 1.2%   |                  0.9%   [32]       
86     block_9_depthwise_relu         |                  0.5%   |                  0.4%   [33]       
88     block_9_project_BN             ||                 1.1%   |                  0.9%   [34]       
89     block_9_add                    |                  0.0%   |                  0.0%   [35]       
92     block_10_expand_relu           ||                 1.2%   |                  0.9%   [36]       
95     block_10_depthwise_relu        |                  0.5%   |                  0.4%   [37]       
97     block_10_project_BN            ||                 1.4%   |                  1.2%   [38]       
100    block_11_expand_relu           |||                2.0%   |                  1.6%   [39]       
103    block_11_depthwise_relu        |                  0.7%   |                  0.5%   [40]       
105    block_11_project_BN            |||                1.9%   |                  1.5%   [41]       
106    block_11_add                   |                  0.0%   |                  0.0%   [42]       
109    block_12_expand_relu           |||                2.0%   |                  1.6%   [43]       
112    block_12_depthwise_relu        |                  0.7%   |                  0.5%   [44]       
114    block_12_project_BN            |||                1.9%   |                  1.5%   [45]       
115    block_12_add                   |                  0.0%   |                  0.0%   [46]       
118    block_13_expand_relu           |||                2.0%   |                  1.6%   [47]       
122    block_13_depthwise_relu        |                  0.2%   |                  0.5%   [48]       
124    block_13_project_BN            ||                 0.8%   ||                 2.7%   [49]       
127    block_14_expand_relu           |||                1.5%   ||                 4.8%   [50]       
130    block_14_depthwise_relu        |                  0.3%   |                  0.8%   [51]       
132    block_14_project_BN            ||                 1.4%   ||                 4.7%   [52]       
133    block_14_add                   |                  0.0%   |                  0.0%   [53]       
136    block_15_expand_relu           |||                1.5%   ||                 4.8%   [54]       
139    block_15_depthwise_relu        |                  0.3%   |                  0.8%   [55]       
141    block_15_project_BN            ||                 1.4%   ||                 4.7%   [56]       
142    block_15_add                   |                  0.0%   |                  0.0%   [57]       
145    block_16_expand_relu           |||                1.5%   ||                 4.8%   [58]       
148    block_16_depthwise_relu        |                  0.3%   |                  0.8%   [59]       
150    block_16_project_BN            ||||               2.9%   ||||               9.4%   [60]       
153    out_relu                       ||||||||||||||||  11.2%   ||||||||||||||||  36.2%   [61]       
------ ------------------------------ ------------------------- ------------------------- ---------- 
macc=1,310,080 weights=1,597,704 act=56,512 ram_io=0

Generated files (7)
--------------------------------------------------------------- 
/home/pavel/.stm32cubemx/network_output/network_config.h        
/home/pavel/.stm32cubemx/network_output/network.h               
/home/pavel/.stm32cubemx/network_output/network.c               
/home/pavel/.stm32cubemx/network_output/network_data_params.h   
/home/pavel/.stm32cubemx/network_output/network_data_params.c   
/home/pavel/.stm32cubemx/network_output/network_data.h          
/home/pavel/.stm32cubemx/network_output/network_data.c          
